{"format": "graph-model", "generatedBy": "2.3.0", "convertedBy": "TensorFlow.js Converter v2.4.0", "userDefinedMetadata": {"signature": {"outputs": {"detected_classes:0": {"name": "detected_classes:0"}, "detected_scores:0": {"name": "detected_scores:0"}, "detected_boxes:0": {"name": "detected_boxes:0"}}}, "Image.BitmapPixelFormat": "Rgb8"}, "modelTopology": {"node": [{"name": "prior_centers", "op": "Const", "attr": {"dtype": {"type": "DT_FLOAT"}, "value": {"tensor": {"dtype": "DT_FLOAT", "tensorShape": {"dim": [{"size": "3210"}, {"size": "2"}]}}}}}, {"name": "mul", "op": "Const", "attr": {"value": {"tensor": {"dtype": "DT_FLOAT", "tensorShape": {"dim": [{"size": "3210"}, {"size": "2"}]}}}, "dtype": {"type": "DT_FLOAT"}}}, {"name": "mbox0_loc_conv0/weights", "op": "Const", "attr": {"value": {"tensor": {"dtype": "DT_FLOAT", "tensorShape": {"dim": [{"size": "3"}, {"size": "3"}, {"size": "576"}, {"size": "1"}]}}}, "dtype": {"type": "DT_FLOAT"}}}, {"name": "mbox0_loc_conv0/biases", "op": "Const", "attr": {"value": {"tensor": {"dtype": "DT_FLOAT", "tensorShape": {"dim": [{"size": "576"}]}}}, "dtype": {"type": "DT_FLOAT"}}}, {"name": "mbox0_loc/weights", "op": "Const", "attr": {"value": {"tensor": {"dtype": "DT_FLOAT", "tensorShape": {"dim": [{"size": "1"}, {"size": "1"}, {"size": "576"}, {"size": "24"}]}}}, "dtype": {"type": "DT_FLOAT"}}}, {"name": "mbox0_loc/biases", "op": "Const", "attr": {"dtype": {"type": "DT_FLOAT"}, "value": {"tensor": {"dtype": "DT_FLOAT", "tensorShape": {"dim": [{"size": "24"}]}}}}}, {"name": "mbox1_loc_conv0/weights", "op": "Const", "attr": {"dtype": {"type": "DT_FLOAT"}, "value": {"tensor": {"dtype": "DT_FLOAT", "tensorShape": {"dim": [{"size": "3"}, {"size": "3"}, {"size": "1280"}, {"size": "1"}]}}}}}, {"name": "mbox1_loc_conv0/biases", "op": "Const", "attr": {"value": {"tensor": {"dtype": "DT_FLOAT", "tensorShape": {"dim": [{"size": "1280"}]}}}, "dtype": {"type": "DT_FLOAT"}}}, {"name": "mbox1_loc/weights", "op": "Const", "attr": {"dtype": {"type": "DT_FLOAT"}, "value": {"tensor": {"dtype": "DT_FLOAT", "tensorShape": {"dim": [{"size": "1"}, {"size": "1"}, {"size": "1280"}, {"size": "24"}]}}}}}, {"name": "mbox1_loc/biases", "op": "Const", "attr": {"dtype": {"type": "DT_FLOAT"}, "value": {"tensor": {"dtype": "DT_FLOAT", "tensorShape": {"dim": [{"size": "24"}]}}}}}, {"name": "mbox2_loc_conv0/weights", "op": "Const", "attr": {"value": {"tensor": {"dtype": "DT_FLOAT", "tensorShape": {"dim": [{"size": "3"}, {"size": "3"}, {"size": "256"}, {"size": "1"}]}}}, "dtype": {"type": "DT_FLOAT"}}}, {"name": "mbox2_loc_conv0/biases", "op": "Const", "attr": {"value": {"tensor": {"dtype": "DT_FLOAT", "tensorShape": {"dim": [{"size": "256"}]}}}, "dtype": {"type": "DT_FLOAT"}}}, {"name": "mbox2_loc/weights", "op": "Const", "attr": {"value": {"tensor": {"dtype": "DT_FLOAT", "tensorShape": {"dim": [{"size": "1"}, {"size": "1"}, {"size": "256"}, {"size": "24"}]}}}, "dtype": {"type": "DT_FLOAT"}}}, {"name": "mbox2_loc/biases", "op": "Const", "attr": {"value": {"tensor": {"dtype": "DT_FLOAT", "tensorShape": {"dim": [{"size": "24"}]}}}, "dtype": {"type": "DT_FLOAT"}}}, {"name": "mbox3_loc_conv0/weights", "op": "Const", "attr": {"value": {"tensor": {"dtype": "DT_FLOAT", "tensorShape": {"dim": [{"size": "3"}, {"size": "3"}, {"size": "256"}, {"size": "1"}]}}}, "dtype": {"type": "DT_FLOAT"}}}, {"name": "mbox3_loc_conv0/biases", "op": "Const", "attr": {"dtype": {"type": "DT_FLOAT"}, "value": {"tensor": {"dtype": "DT_FLOAT", "tensorShape": {"dim": [{"size": "256"}]}}}}}, {"name": "mbox3_loc/weights", "op": "Const", "attr": {"value": {"tensor": {"dtype": "DT_FLOAT", "tensorShape": {"dim": [{"size": "1"}, {"size": "1"}, {"size": "256"}, {"size": "24"}]}}}, "dtype": {"type": "DT_FLOAT"}}}, {"name": "mbox3_loc/biases", "op": "Const", "attr": {"value": {"tensor": {"dtype": "DT_FLOAT", "tensorShape": {"dim": [{"size": "24"}]}}}, "dtype": {"type": "DT_FLOAT"}}}, {"name": "mbox4_loc_conv0/weights", "op": "Const", "attr": {"value": {"tensor": {"dtype": "DT_FLOAT", "tensorShape": {"dim": [{"size": "3"}, {"size": "3"}, {"size": "128"}, {"size": "1"}]}}}, "dtype": {"type": "DT_FLOAT"}}}, {"name": "mbox4_loc_conv0/biases", "op": "Const", "attr": {"dtype": {"type": "DT_FLOAT"}, "value": {"tensor": {"dtype": "DT_FLOAT", "tensorShape": {"dim": [{"size": "128"}]}}}}}, {"name": "mbox4_loc/weights", "op": "Const", "attr": {"value": {"tensor": {"dtype": "DT_FLOAT", "tensorShape": {"dim": [{"size": "1"}, {"size": "1"}, {"size": "128"}, {"size": "24"}]}}}, "dtype": {"type": "DT_FLOAT"}}}, {"name": "mbox4_loc/biases", "op": "Const", "attr": {"dtype": {"type": "DT_FLOAT"}, "value": {"tensor": {"dtype": "DT_FLOAT", "tensorShape": {"dim": [{"size": "24"}]}}}}}, {"name": "mbox_loc_shape", "op": "Const", "attr": {"value": {"tensor": {"dtype": "DT_INT32", "tensorShape": {"dim": [{"size": "2"}]}}}, "dtype": {"type": "DT_INT32"}}}, {"name": "mbox_loc/axis", "op": "Const", "attr": {"dtype": {"type": "DT_INT32"}, "value": {"tensor": {"dtype": "DT_INT32", "tensorShape": {}}}}}, {"name": "Const_4", "op": "Const", "attr": {"value": {"tensor": {"dtype": "DT_FLOAT", "tensorShape": {}}}, "dtype": {"type": "DT_FLOAT"}}}, {"name": "mul_3", "op": "Const", "attr": {"dtype": {"type": "DT_FLOAT"}, "value": {"tensor": {"dtype": "DT_FLOAT", "tensorShape": {"dim": [{"size": "3210"}, {"size": "2"}]}}}}}, {"name": "mbox0_conf_conv0/weights", "op": "Const", "attr": {"value": {"tensor": {"dtype": "DT_FLOAT", "tensorShape": {"dim": [{"size": "3"}, {"size": "3"}, {"size": "576"}, {"size": "1"}]}}}, "dtype": {"type": "DT_FLOAT"}}}, {"name": "mbox0_conf_conv0/biases", "op": "Const", "attr": {"dtype": {"type": "DT_FLOAT"}, "value": {"tensor": {"dtype": "DT_FLOAT", "tensorShape": {"dim": [{"size": "576"}]}}}}}, {"name": "mbox0_conf/weights", "op": "Const", "attr": {"value": {"tensor": {"dtype": "DT_FLOAT", "tensorShape": {"dim": [{"size": "1"}, {"size": "1"}, {"size": "576"}, {"size": "18"}]}}}, "dtype": {"type": "DT_FLOAT"}}}, {"name": "mbox0_conf/biases", "op": "Const", "attr": {"value": {"tensor": {"dtype": "DT_FLOAT", "tensorShape": {"dim": [{"size": "18"}]}}}, "dtype": {"type": "DT_FLOAT"}}}, {"name": "mbox1_conf_conv0/weights", "op": "Const", "attr": {"dtype": {"type": "DT_FLOAT"}, "value": {"tensor": {"dtype": "DT_FLOAT", "tensorShape": {"dim": [{"size": "3"}, {"size": "3"}, {"size": "1280"}, {"size": "1"}]}}}}}, {"name": "mbox1_conf_conv0/biases", "op": "Const", "attr": {"value": {"tensor": {"dtype": "DT_FLOAT", "tensorShape": {"dim": [{"size": "1280"}]}}}, "dtype": {"type": "DT_FLOAT"}}}, {"name": "mbox1_conf/weights", "op": "Const", "attr": {"value": {"tensor": {"dtype": "DT_FLOAT", "tensorShape": {"dim": [{"size": "1"}, {"size": "1"}, {"size": "1280"}, {"size": "18"}]}}}, "dtype": {"type": "DT_FLOAT"}}}, {"name": "mbox1_conf/biases", "op": "Const", "attr": {"dtype": {"type": "DT_FLOAT"}, "value": {"tensor": {"dtype": "DT_FLOAT", "tensorShape": {"dim": [{"size": "18"}]}}}}}, {"name": "mbox2_conf_conv0/weights", "op": "Const", "attr": {"value": {"tensor": {"dtype": "DT_FLOAT", "tensorShape": {"dim": [{"size": "3"}, {"size": "3"}, {"size": "256"}, {"size": "1"}]}}}, "dtype": {"type": "DT_FLOAT"}}}, {"name": "mbox2_conf_conv0/biases", "op": "Const", "attr": {"value": {"tensor": {"dtype": "DT_FLOAT", "tensorShape": {"dim": [{"size": "256"}]}}}, "dtype": {"type": "DT_FLOAT"}}}, {"name": "mbox2_conf/weights", "op": "Const", "attr": {"value": {"tensor": {"dtype": "DT_FLOAT", "tensorShape": {"dim": [{"size": "1"}, {"size": "1"}, {"size": "256"}, {"size": "18"}]}}}, "dtype": {"type": "DT_FLOAT"}}}, {"name": "mbox2_conf/biases", "op": "Const", "attr": {"value": {"tensor": {"dtype": "DT_FLOAT", "tensorShape": {"dim": [{"size": "18"}]}}}, "dtype": {"type": "DT_FLOAT"}}}, {"name": "mbox3_conf_conv0/weights", "op": "Const", "attr": {"value": {"tensor": {"dtype": "DT_FLOAT", "tensorShape": {"dim": [{"size": "3"}, {"size": "3"}, {"size": "256"}, {"size": "1"}]}}}, "dtype": {"type": "DT_FLOAT"}}}, {"name": "mbox3_conf_conv0/biases", "op": "Const", "attr": {"value": {"tensor": {"dtype": "DT_FLOAT", "tensorShape": {"dim": [{"size": "256"}]}}}, "dtype": {"type": "DT_FLOAT"}}}, {"name": "mbox3_conf/weights", "op": "Const", "attr": {"value": {"tensor": {"dtype": "DT_FLOAT", "tensorShape": {"dim": [{"size": "1"}, {"size": "1"}, {"size": "256"}, {"size": "18"}]}}}, "dtype": {"type": "DT_FLOAT"}}}, {"name": "mbox3_conf/biases", "op": "Const", "attr": {"value": {"tensor": {"dtype": "DT_FLOAT", "tensorShape": {"dim": [{"size": "18"}]}}}, "dtype": {"type": "DT_FLOAT"}}}, {"name": "mean_value", "op": "Const", "attr": {"value": {"tensor": {"dtype": "DT_FLOAT", "tensorShape": {"dim": [{"size": "3"}]}}}, "dtype": {"type": "DT_FLOAT"}}}, {"name": "conv1/weights", "op": "Const", "attr": {"dtype": {"type": "DT_FLOAT"}, "value": {"tensor": {"dtype": "DT_FLOAT", "tensorShape": {"dim": [{"size": "3"}, {"size": "3"}, {"size": "3"}, {"size": "32"}]}}}}}, {"name": "conv1/biases", "op": "Const", "attr": {"value": {"tensor": {"dtype": "DT_FLOAT", "tensorShape": {"dim": [{"size": "32"}]}}}, "dtype": {"type": "DT_FLOAT"}}}, {"name": "block0_conv0/weights", "op": "Const", "attr": {"value": {"tensor": {"dtype": "DT_FLOAT", "tensorShape": {"dim": [{"size": "1"}, {"size": "1"}, {"size": "32"}, {"size": "32"}]}}}, "dtype": {"type": "DT_FLOAT"}}}, {"name": "block0_conv0/biases", "op": "Const", "attr": {"value": {"tensor": {"dtype": "DT_FLOAT", "tensorShape": {"dim": [{"size": "32"}]}}}, "dtype": {"type": "DT_FLOAT"}}}, {"name": "block0_conv1/weights", "op": "Const", "attr": {"dtype": {"type": "DT_FLOAT"}, "value": {"tensor": {"dtype": "DT_FLOAT", "tensorShape": {"dim": [{"size": "3"}, {"size": "3"}, {"size": "32"}, {"size": "1"}]}}}}}, {"name": "block0_conv1/biases", "op": "Const", "attr": {"value": {"tensor": {"dtype": "DT_FLOAT", "tensorShape": {"dim": [{"size": "32"}]}}}, "dtype": {"type": "DT_FLOAT"}}}, {"name": "block0_conv2/weights", "op": "Const", "attr": {"value": {"tensor": {"dtype": "DT_FLOAT", "tensorShape": {"dim": [{"size": "1"}, {"size": "1"}, {"size": "32"}, {"size": "16"}]}}}, "dtype": {"type": "DT_FLOAT"}}}, {"name": "block0_conv2/biases", "op": "Const", "attr": {"value": {"tensor": {"dtype": "DT_FLOAT", "tensorShape": {"dim": [{"size": "16"}]}}}, "dtype": {"type": "DT_FLOAT"}}}, {"name": "block1_conv0/weights", "op": "Const", "attr": {"value": {"tensor": {"dtype": "DT_FLOAT", "tensorShape": {"dim": [{"size": "1"}, {"size": "1"}, {"size": "16"}, {"size": "96"}]}}}, "dtype": {"type": "DT_FLOAT"}}}, {"name": "block1_conv0/biases", "op": "Const", "attr": {"value": {"tensor": {"dtype": "DT_FLOAT", "tensorShape": {"dim": [{"size": "96"}]}}}, "dtype": {"type": "DT_FLOAT"}}}, {"name": "block1_conv1/weights", "op": "Const", "attr": {"value": {"tensor": {"dtype": "DT_FLOAT", "tensorShape": {"dim": [{"size": "3"}, {"size": "3"}, {"size": "96"}, {"size": "1"}]}}}, "dtype": {"type": "DT_FLOAT"}}}, {"name": "block1_conv1/biases", "op": "Const", "attr": {"value": {"tensor": {"dtype": "DT_FLOAT", "tensorShape": {"dim": [{"size": "96"}]}}}, "dtype": {"type": "DT_FLOAT"}}}, {"name": "block1_conv2/weights", "op": "Const", "attr": {"value": {"tensor": {"dtype": "DT_FLOAT", "tensorShape": {"dim": [{"size": "1"}, {"size": "1"}, {"size": "96"}, {"size": "24"}]}}}, "dtype": {"type": "DT_FLOAT"}}}, {"name": "block1_conv2/biases", "op": "Const", "attr": {"value": {"tensor": {"dtype": "DT_FLOAT", "tensorShape": {"dim": [{"size": "24"}]}}}, "dtype": {"type": "DT_FLOAT"}}}, {"name": "block2_conv0/weights", "op": "Const", "attr": {"dtype": {"type": "DT_FLOAT"}, "value": {"tensor": {"dtype": "DT_FLOAT", "tensorShape": {"dim": [{"size": "1"}, {"size": "1"}, {"size": "24"}, {"size": "144"}]}}}}}, {"name": "block2_conv0/biases", "op": "Const", "attr": {"value": {"tensor": {"dtype": "DT_FLOAT", "tensorShape": {"dim": [{"size": "144"}]}}}, "dtype": {"type": "DT_FLOAT"}}}, {"name": "block2_conv1/weights", "op": "Const", "attr": {"value": {"tensor": {"dtype": "DT_FLOAT", "tensorShape": {"dim": [{"size": "3"}, {"size": "3"}, {"size": "144"}, {"size": "1"}]}}}, "dtype": {"type": "DT_FLOAT"}}}, {"name": "block2_conv1/biases", "op": "Const", "attr": {"value": {"tensor": {"dtype": "DT_FLOAT", "tensorShape": {"dim": [{"size": "144"}]}}}, "dtype": {"type": "DT_FLOAT"}}}, {"name": "block2_conv2/weights", "op": "Const", "attr": {"value": {"tensor": {"dtype": "DT_FLOAT", "tensorShape": {"dim": [{"size": "1"}, {"size": "1"}, {"size": "144"}, {"size": "24"}]}}}, "dtype": {"type": "DT_FLOAT"}}}, {"name": "block2_conv2/biases", "op": "Const", "attr": {"value": {"tensor": {"dtype": "DT_FLOAT", "tensorShape": {"dim": [{"size": "24"}]}}}, "dtype": {"type": "DT_FLOAT"}}}, {"name": "block3_conv0/weights", "op": "Const", "attr": {"value": {"tensor": {"dtype": "DT_FLOAT", "tensorShape": {"dim": [{"size": "1"}, {"size": "1"}, {"size": "24"}, {"size": "144"}]}}}, "dtype": {"type": "DT_FLOAT"}}}, {"name": "block3_conv0/biases", "op": "Const", "attr": {"value": {"tensor": {"dtype": "DT_FLOAT", "tensorShape": {"dim": [{"size": "144"}]}}}, "dtype": {"type": "DT_FLOAT"}}}, {"name": "block3_conv1/weights", "op": "Const", "attr": {"dtype": {"type": "DT_FLOAT"}, "value": {"tensor": {"dtype": "DT_FLOAT", "tensorShape": {"dim": [{"size": "3"}, {"size": "3"}, {"size": "144"}, {"size": "1"}]}}}}}, {"name": "block3_conv1/biases", "op": "Const", "attr": {"value": {"tensor": {"dtype": "DT_FLOAT", "tensorShape": {"dim": [{"size": "144"}]}}}, "dtype": {"type": "DT_FLOAT"}}}, {"name": "block3_conv2/weights", "op": "Const", "attr": {"dtype": {"type": "DT_FLOAT"}, "value": {"tensor": {"dtype": "DT_FLOAT", "tensorShape": {"dim": [{"size": "1"}, {"size": "1"}, {"size": "144"}, {"size": "32"}]}}}}}, {"name": "block3_conv2/biases", "op": "Const", "attr": {"value": {"tensor": {"dtype": "DT_FLOAT", "tensorShape": {"dim": [{"size": "32"}]}}}, "dtype": {"type": "DT_FLOAT"}}}, {"name": "block4_conv0/weights", "op": "Const", "attr": {"value": {"tensor": {"dtype": "DT_FLOAT", "tensorShape": {"dim": [{"size": "1"}, {"size": "1"}, {"size": "32"}, {"size": "192"}]}}}, "dtype": {"type": "DT_FLOAT"}}}, {"name": "block4_conv0/biases", "op": "Const", "attr": {"value": {"tensor": {"dtype": "DT_FLOAT", "tensorShape": {"dim": [{"size": "192"}]}}}, "dtype": {"type": "DT_FLOAT"}}}, {"name": "block4_conv1/weights", "op": "Const", "attr": {"value": {"tensor": {"dtype": "DT_FLOAT", "tensorShape": {"dim": [{"size": "3"}, {"size": "3"}, {"size": "192"}, {"size": "1"}]}}}, "dtype": {"type": "DT_FLOAT"}}}, {"name": "block4_conv1/biases", "op": "Const", "attr": {"dtype": {"type": "DT_FLOAT"}, "value": {"tensor": {"dtype": "DT_FLOAT", "tensorShape": {"dim": [{"size": "192"}]}}}}}, {"name": "block4_conv2/weights", "op": "Const", "attr": {"value": {"tensor": {"dtype": "DT_FLOAT", "tensorShape": {"dim": [{"size": "1"}, {"size": "1"}, {"size": "192"}, {"size": "32"}]}}}, "dtype": {"type": "DT_FLOAT"}}}, {"name": "block4_conv2/biases", "op": "Const", "attr": {"value": {"tensor": {"dtype": "DT_FLOAT", "tensorShape": {"dim": [{"size": "32"}]}}}, "dtype": {"type": "DT_FLOAT"}}}, {"name": "block5_conv0/weights", "op": "Const", "attr": {"dtype": {"type": "DT_FLOAT"}, "value": {"tensor": {"dtype": "DT_FLOAT", "tensorShape": {"dim": [{"size": "1"}, {"size": "1"}, {"size": "32"}, {"size": "192"}]}}}}}, {"name": "block5_conv0/biases", "op": "Const", "attr": {"value": {"tensor": {"dtype": "DT_FLOAT", "tensorShape": {"dim": [{"size": "192"}]}}}, "dtype": {"type": "DT_FLOAT"}}}, {"name": "block5_conv1/weights", "op": "Const", "attr": {"value": {"tensor": {"dtype": "DT_FLOAT", "tensorShape": {"dim": [{"size": "3"}, {"size": "3"}, {"size": "192"}, {"size": "1"}]}}}, "dtype": {"type": "DT_FLOAT"}}}, {"name": "block5_conv1/biases", "op": "Const", "attr": {"value": {"tensor": {"dtype": "DT_FLOAT", "tensorShape": {"dim": [{"size": "192"}]}}}, "dtype": {"type": "DT_FLOAT"}}}, {"name": "block5_conv2/weights", "op": "Const", "attr": {"dtype": {"type": "DT_FLOAT"}, "value": {"tensor": {"dtype": "DT_FLOAT", "tensorShape": {"dim": [{"size": "1"}, {"size": "1"}, {"size": "192"}, {"size": "32"}]}}}}}, {"name": "block5_conv2/biases", "op": "Const", "attr": {"value": {"tensor": {"dtype": "DT_FLOAT", "tensorShape": {"dim": [{"size": "32"}]}}}, "dtype": {"type": "DT_FLOAT"}}}, {"name": "block6_conv0/weights", "op": "Const", "attr": {"dtype": {"type": "DT_FLOAT"}, "value": {"tensor": {"dtype": "DT_FLOAT", "tensorShape": {"dim": [{"size": "1"}, {"size": "1"}, {"size": "32"}, {"size": "192"}]}}}}}, {"name": "block6_conv0/biases", "op": "Const", "attr": {"dtype": {"type": "DT_FLOAT"}, "value": {"tensor": {"dtype": "DT_FLOAT", "tensorShape": {"dim": [{"size": "192"}]}}}}}, {"name": "block6_conv1/weights", "op": "Const", "attr": {"value": {"tensor": {"dtype": "DT_FLOAT", "tensorShape": {"dim": [{"size": "3"}, {"size": "3"}, {"size": "192"}, {"size": "1"}]}}}, "dtype": {"type": "DT_FLOAT"}}}, {"name": "block6_conv1/biases", "op": "Const", "attr": {"value": {"tensor": {"dtype": "DT_FLOAT", "tensorShape": {"dim": [{"size": "192"}]}}}, "dtype": {"type": "DT_FLOAT"}}}, {"name": "block6_conv2/weights", "op": "Const", "attr": {"value": {"tensor": {"dtype": "DT_FLOAT", "tensorShape": {"dim": [{"size": "1"}, {"size": "1"}, {"size": "192"}, {"size": "64"}]}}}, "dtype": {"type": "DT_FLOAT"}}}, {"name": "block6_conv2/biases", "op": "Const", "attr": {"value": {"tensor": {"dtype": "DT_FLOAT", "tensorShape": {"dim": [{"size": "64"}]}}}, "dtype": {"type": "DT_FLOAT"}}}, {"name": "block7_conv0/weights", "op": "Const", "attr": {"value": {"tensor": {"dtype": "DT_FLOAT", "tensorShape": {"dim": [{"size": "1"}, {"size": "1"}, {"size": "64"}, {"size": "384"}]}}}, "dtype": {"type": "DT_FLOAT"}}}, {"name": "block7_conv0/biases", "op": "Const", "attr": {"value": {"tensor": {"dtype": "DT_FLOAT", "tensorShape": {"dim": [{"size": "384"}]}}}, "dtype": {"type": "DT_FLOAT"}}}, {"name": "block7_conv1/weights", "op": "Const", "attr": {"value": {"tensor": {"dtype": "DT_FLOAT", "tensorShape": {"dim": [{"size": "3"}, {"size": "3"}, {"size": "384"}, {"size": "1"}]}}}, "dtype": {"type": "DT_FLOAT"}}}, {"name": "block7_conv1/biases", "op": "Const", "attr": {"value": {"tensor": {"dtype": "DT_FLOAT", "tensorShape": {"dim": [{"size": "384"}]}}}, "dtype": {"type": "DT_FLOAT"}}}, {"name": "block7_conv2/weights", "op": "Const", "attr": {"value": {"tensor": {"dtype": "DT_FLOAT", "tensorShape": {"dim": [{"size": "1"}, {"size": "1"}, {"size": "384"}, {"size": "64"}]}}}, "dtype": {"type": "DT_FLOAT"}}}, {"name": "block7_conv2/biases", "op": "Const", "attr": {"value": {"tensor": {"dtype": "DT_FLOAT", "tensorShape": {"dim": [{"size": "64"}]}}}, "dtype": {"type": "DT_FLOAT"}}}, {"name": "block8_conv0/weights", "op": "Const", "attr": {"value": {"tensor": {"dtype": "DT_FLOAT", "tensorShape": {"dim": [{"size": "1"}, {"size": "1"}, {"size": "64"}, {"size": "384"}]}}}, "dtype": {"type": "DT_FLOAT"}}}, {"name": "block8_conv0/biases", "op": "Const", "attr": {"value": {"tensor": {"dtype": "DT_FLOAT", "tensorShape": {"dim": [{"size": "384"}]}}}, "dtype": {"type": "DT_FLOAT"}}}, {"name": "block8_conv1/weights", "op": "Const", "attr": {"dtype": {"type": "DT_FLOAT"}, "value": {"tensor": {"dtype": "DT_FLOAT", "tensorShape": {"dim": [{"size": "3"}, {"size": "3"}, {"size": "384"}, {"size": "1"}]}}}}}, {"name": "block8_conv1/biases", "op": "Const", "attr": {"value": {"tensor": {"dtype": "DT_FLOAT", "tensorShape": {"dim": [{"size": "384"}]}}}, "dtype": {"type": "DT_FLOAT"}}}, {"name": "block8_conv2/weights", "op": "Const", "attr": {"value": {"tensor": {"dtype": "DT_FLOAT", "tensorShape": {"dim": [{"size": "1"}, {"size": "1"}, {"size": "384"}, {"size": "64"}]}}}, "dtype": {"type": "DT_FLOAT"}}}, {"name": "block8_conv2/biases", "op": "Const", "attr": {"dtype": {"type": "DT_FLOAT"}, "value": {"tensor": {"dtype": "DT_FLOAT", "tensorShape": {"dim": [{"size": "64"}]}}}}}, {"name": "block9_conv0/weights", "op": "Const", "attr": {"value": {"tensor": {"dtype": "DT_FLOAT", "tensorShape": {"dim": [{"size": "1"}, {"size": "1"}, {"size": "64"}, {"size": "384"}]}}}, "dtype": {"type": "DT_FLOAT"}}}, {"name": "block9_conv0/biases", "op": "Const", "attr": {"value": {"tensor": {"dtype": "DT_FLOAT", "tensorShape": {"dim": [{"size": "384"}]}}}, "dtype": {"type": "DT_FLOAT"}}}, {"name": "block9_conv1/weights", "op": "Const", "attr": {"value": {"tensor": {"dtype": "DT_FLOAT", "tensorShape": {"dim": [{"size": "3"}, {"size": "3"}, {"size": "384"}, {"size": "1"}]}}}, "dtype": {"type": "DT_FLOAT"}}}, {"name": "block9_conv1/biases", "op": "Const", "attr": {"value": {"tensor": {"dtype": "DT_FLOAT", "tensorShape": {"dim": [{"size": "384"}]}}}, "dtype": {"type": "DT_FLOAT"}}}, {"name": "block9_conv2/weights", "op": "Const", "attr": {"dtype": {"type": "DT_FLOAT"}, "value": {"tensor": {"dtype": "DT_FLOAT", "tensorShape": {"dim": [{"size": "1"}, {"size": "1"}, {"size": "384"}, {"size": "64"}]}}}}}, {"name": "block9_conv2/biases", "op": "Const", "attr": {"value": {"tensor": {"dtype": "DT_FLOAT", "tensorShape": {"dim": [{"size": "64"}]}}}, "dtype": {"type": "DT_FLOAT"}}}, {"name": "block10_conv0/weights", "op": "Const", "attr": {"value": {"tensor": {"dtype": "DT_FLOAT", "tensorShape": {"dim": [{"size": "1"}, {"size": "1"}, {"size": "64"}, {"size": "384"}]}}}, "dtype": {"type": "DT_FLOAT"}}}, {"name": "block10_conv0/biases", "op": "Const", "attr": {"value": {"tensor": {"dtype": "DT_FLOAT", "tensorShape": {"dim": [{"size": "384"}]}}}, "dtype": {"type": "DT_FLOAT"}}}, {"name": "block10_conv1/weights", "op": "Const", "attr": {"value": {"tensor": {"dtype": "DT_FLOAT", "tensorShape": {"dim": [{"size": "3"}, {"size": "3"}, {"size": "384"}, {"size": "1"}]}}}, "dtype": {"type": "DT_FLOAT"}}}, {"name": "block10_conv1/biases", "op": "Const", "attr": {"value": {"tensor": {"dtype": "DT_FLOAT", "tensorShape": {"dim": [{"size": "384"}]}}}, "dtype": {"type": "DT_FLOAT"}}}, {"name": "block10_conv2/weights", "op": "Const", "attr": {"value": {"tensor": {"dtype": "DT_FLOAT", "tensorShape": {"dim": [{"size": "1"}, {"size": "1"}, {"size": "384"}, {"size": "96"}]}}}, "dtype": {"type": "DT_FLOAT"}}}, {"name": "block10_conv2/biases", "op": "Const", "attr": {"dtype": {"type": "DT_FLOAT"}, "value": {"tensor": {"dtype": "DT_FLOAT", "tensorShape": {"dim": [{"size": "96"}]}}}}}, {"name": "block11_conv0/weights", "op": "Const", "attr": {"value": {"tensor": {"dtype": "DT_FLOAT", "tensorShape": {"dim": [{"size": "1"}, {"size": "1"}, {"size": "96"}, {"size": "576"}]}}}, "dtype": {"type": "DT_FLOAT"}}}, {"name": "block11_conv0/biases", "op": "Const", "attr": {"dtype": {"type": "DT_FLOAT"}, "value": {"tensor": {"dtype": "DT_FLOAT", "tensorShape": {"dim": [{"size": "576"}]}}}}}, {"name": "block11_conv1/weights", "op": "Const", "attr": {"value": {"tensor": {"dtype": "DT_FLOAT", "tensorShape": {"dim": [{"size": "3"}, {"size": "3"}, {"size": "576"}, {"size": "1"}]}}}, "dtype": {"type": "DT_FLOAT"}}}, {"name": "block11_conv1/biases", "op": "Const", "attr": {"dtype": {"type": "DT_FLOAT"}, "value": {"tensor": {"dtype": "DT_FLOAT", "tensorShape": {"dim": [{"size": "576"}]}}}}}, {"name": "block11_conv2/weights", "op": "Const", "attr": {"value": {"tensor": {"dtype": "DT_FLOAT", "tensorShape": {"dim": [{"size": "1"}, {"size": "1"}, {"size": "576"}, {"size": "96"}]}}}, "dtype": {"type": "DT_FLOAT"}}}, {"name": "block11_conv2/biases", "op": "Const", "attr": {"dtype": {"type": "DT_FLOAT"}, "value": {"tensor": {"dtype": "DT_FLOAT", "tensorShape": {"dim": [{"size": "96"}]}}}}}, {"name": "block12_conv0/weights", "op": "Const", "attr": {"value": {"tensor": {"dtype": "DT_FLOAT", "tensorShape": {"dim": [{"size": "1"}, {"size": "1"}, {"size": "96"}, {"size": "576"}]}}}, "dtype": {"type": "DT_FLOAT"}}}, {"name": "block12_conv0/biases", "op": "Const", "attr": {"value": {"tensor": {"dtype": "DT_FLOAT", "tensorShape": {"dim": [{"size": "576"}]}}}, "dtype": {"type": "DT_FLOAT"}}}, {"name": "block12_conv1/weights", "op": "Const", "attr": {"dtype": {"type": "DT_FLOAT"}, "value": {"tensor": {"dtype": "DT_FLOAT", "tensorShape": {"dim": [{"size": "3"}, {"size": "3"}, {"size": "576"}, {"size": "1"}]}}}}}, {"name": "block12_conv1/biases", "op": "Const", "attr": {"value": {"tensor": {"dtype": "DT_FLOAT", "tensorShape": {"dim": [{"size": "576"}]}}}, "dtype": {"type": "DT_FLOAT"}}}, {"name": "block12_conv2/weights", "op": "Const", "attr": {"value": {"tensor": {"dtype": "DT_FLOAT", "tensorShape": {"dim": [{"size": "1"}, {"size": "1"}, {"size": "576"}, {"size": "96"}]}}}, "dtype": {"type": "DT_FLOAT"}}}, {"name": "block12_conv2/biases", "op": "Const", "attr": {"dtype": {"type": "DT_FLOAT"}, "value": {"tensor": {"dtype": "DT_FLOAT", "tensorShape": {"dim": [{"size": "96"}]}}}}}, {"name": "block13_conv0/weights", "op": "Const", "attr": {"value": {"tensor": {"dtype": "DT_FLOAT", "tensorShape": {"dim": [{"size": "1"}, {"size": "1"}, {"size": "96"}, {"size": "576"}]}}}, "dtype": {"type": "DT_FLOAT"}}}, {"name": "block13_conv0/biases", "op": "Const", "attr": {"value": {"tensor": {"dtype": "DT_FLOAT", "tensorShape": {"dim": [{"size": "576"}]}}}, "dtype": {"type": "DT_FLOAT"}}}, {"name": "block13_conv1/weights", "op": "Const", "attr": {"dtype": {"type": "DT_FLOAT"}, "value": {"tensor": {"dtype": "DT_FLOAT", "tensorShape": {"dim": [{"size": "3"}, {"size": "3"}, {"size": "576"}, {"size": "1"}]}}}}}, {"name": "block13_conv1/biases", "op": "Const", "attr": {"value": {"tensor": {"dtype": "DT_FLOAT", "tensorShape": {"dim": [{"size": "576"}]}}}, "dtype": {"type": "DT_FLOAT"}}}, {"name": "block13_conv2/weights", "op": "Const", "attr": {"dtype": {"type": "DT_FLOAT"}, "value": {"tensor": {"dtype": "DT_FLOAT", "tensorShape": {"dim": [{"size": "1"}, {"size": "1"}, {"size": "576"}, {"size": "160"}]}}}}}, {"name": "block13_conv2/biases", "op": "Const", "attr": {"dtype": {"type": "DT_FLOAT"}, "value": {"tensor": {"dtype": "DT_FLOAT", "tensorShape": {"dim": [{"size": "160"}]}}}}}, {"name": "block14_conv0/weights", "op": "Const", "attr": {"value": {"tensor": {"dtype": "DT_FLOAT", "tensorShape": {"dim": [{"size": "1"}, {"size": "1"}, {"size": "160"}, {"size": "960"}]}}}, "dtype": {"type": "DT_FLOAT"}}}, {"name": "block14_conv0/biases", "op": "Const", "attr": {"dtype": {"type": "DT_FLOAT"}, "value": {"tensor": {"dtype": "DT_FLOAT", "tensorShape": {"dim": [{"size": "960"}]}}}}}, {"name": "block14_conv1/weights", "op": "Const", "attr": {"value": {"tensor": {"dtype": "DT_FLOAT", "tensorShape": {"dim": [{"size": "3"}, {"size": "3"}, {"size": "960"}, {"size": "1"}]}}}, "dtype": {"type": "DT_FLOAT"}}}, {"name": "block14_conv1/biases", "op": "Const", "attr": {"value": {"tensor": {"dtype": "DT_FLOAT", "tensorShape": {"dim": [{"size": "960"}]}}}, "dtype": {"type": "DT_FLOAT"}}}, {"name": "block14_conv2/weights", "op": "Const", "attr": {"value": {"tensor": {"dtype": "DT_FLOAT", "tensorShape": {"dim": [{"size": "1"}, {"size": "1"}, {"size": "960"}, {"size": "160"}]}}}, "dtype": {"type": "DT_FLOAT"}}}, {"name": "block14_conv2/biases", "op": "Const", "attr": {"value": {"tensor": {"dtype": "DT_FLOAT", "tensorShape": {"dim": [{"size": "160"}]}}}, "dtype": {"type": "DT_FLOAT"}}}, {"name": "block15_conv0/weights", "op": "Const", "attr": {"value": {"tensor": {"dtype": "DT_FLOAT", "tensorShape": {"dim": [{"size": "1"}, {"size": "1"}, {"size": "160"}, {"size": "960"}]}}}, "dtype": {"type": "DT_FLOAT"}}}, {"name": "block15_conv0/biases", "op": "Const", "attr": {"value": {"tensor": {"dtype": "DT_FLOAT", "tensorShape": {"dim": [{"size": "960"}]}}}, "dtype": {"type": "DT_FLOAT"}}}, {"name": "block15_conv1/weights", "op": "Const", "attr": {"value": {"tensor": {"dtype": "DT_FLOAT", "tensorShape": {"dim": [{"size": "3"}, {"size": "3"}, {"size": "960"}, {"size": "1"}]}}}, "dtype": {"type": "DT_FLOAT"}}}, {"name": "block15_conv1/biases", "op": "Const", "attr": {"value": {"tensor": {"dtype": "DT_FLOAT", "tensorShape": {"dim": [{"size": "960"}]}}}, "dtype": {"type": "DT_FLOAT"}}}, {"name": "block15_conv2/weights", "op": "Const", "attr": {"value": {"tensor": {"dtype": "DT_FLOAT", "tensorShape": {"dim": [{"size": "1"}, {"size": "1"}, {"size": "960"}, {"size": "160"}]}}}, "dtype": {"type": "DT_FLOAT"}}}, {"name": "block15_conv2/biases", "op": "Const", "attr": {"value": {"tensor": {"dtype": "DT_FLOAT", "tensorShape": {"dim": [{"size": "160"}]}}}, "dtype": {"type": "DT_FLOAT"}}}, {"name": "block16_conv0/weights", "op": "Const", "attr": {"value": {"tensor": {"dtype": "DT_FLOAT", "tensorShape": {"dim": [{"size": "1"}, {"size": "1"}, {"size": "160"}, {"size": "960"}]}}}, "dtype": {"type": "DT_FLOAT"}}}, {"name": "block16_conv0/biases", "op": "Const", "attr": {"dtype": {"type": "DT_FLOAT"}, "value": {"tensor": {"dtype": "DT_FLOAT", "tensorShape": {"dim": [{"size": "960"}]}}}}}, {"name": "block16_conv1/weights", "op": "Const", "attr": {"dtype": {"type": "DT_FLOAT"}, "value": {"tensor": {"dtype": "DT_FLOAT", "tensorShape": {"dim": [{"size": "3"}, {"size": "3"}, {"size": "960"}, {"size": "1"}]}}}}}, {"name": "block16_conv1/biases", "op": "Const", "attr": {"value": {"tensor": {"dtype": "DT_FLOAT", "tensorShape": {"dim": [{"size": "960"}]}}}, "dtype": {"type": "DT_FLOAT"}}}, {"name": "block16_conv2/weights", "op": "Const", "attr": {"value": {"tensor": {"dtype": "DT_FLOAT", "tensorShape": {"dim": [{"size": "1"}, {"size": "1"}, {"size": "960"}, {"size": "320"}]}}}, "dtype": {"type": "DT_FLOAT"}}}, {"name": "block16_conv2/biases", "op": "Const", "attr": {"dtype": {"type": "DT_FLOAT"}, "value": {"tensor": {"dtype": "DT_FLOAT", "tensorShape": {"dim": [{"size": "320"}]}}}}}, {"name": "conv2/weights", "op": "Const", "attr": {"value": {"tensor": {"dtype": "DT_FLOAT", "tensorShape": {"dim": [{"size": "1"}, {"size": "1"}, {"size": "320"}, {"size": "1280"}]}}}, "dtype": {"type": "DT_FLOAT"}}}, {"name": "conv2/biases", "op": "Const", "attr": {"value": {"tensor": {"dtype": "DT_FLOAT", "tensorShape": {"dim": [{"size": "1280"}]}}}, "dtype": {"type": "DT_FLOAT"}}}, {"name": "padding", "op": "Const", "attr": {"value": {"tensor": {"dtype": "DT_INT32", "tensorShape": {"dim": [{"size": "4"}, {"size": "2"}]}}}, "dtype": {"type": "DT_INT32"}}}, {"name": "extra0_conv0/weights", "op": "Const", "attr": {"value": {"tensor": {"dtype": "DT_FLOAT", "tensorShape": {"dim": [{"size": "3"}, {"size": "3"}, {"size": "1280"}, {"size": "1"}]}}}, "dtype": {"type": "DT_FLOAT"}}}, {"name": "extra0_conv0/biases", "op": "Const", "attr": {"value": {"tensor": {"dtype": "DT_FLOAT", "tensorShape": {"dim": [{"size": "1280"}]}}}, "dtype": {"type": "DT_FLOAT"}}}, {"name": "extra0/weights", "op": "Const", "attr": {"dtype": {"type": "DT_FLOAT"}, "value": {"tensor": {"dtype": "DT_FLOAT", "tensorShape": {"dim": [{"size": "1"}, {"size": "1"}, {"size": "1280"}, {"size": "256"}]}}}}}, {"name": "extra0/biases", "op": "Const", "attr": {"value": {"tensor": {"dtype": "DT_FLOAT", "tensorShape": {"dim": [{"size": "256"}]}}}, "dtype": {"type": "DT_FLOAT"}}}, {"name": "extra1_conv0/weights", "op": "Const", "attr": {"dtype": {"type": "DT_FLOAT"}, "value": {"tensor": {"dtype": "DT_FLOAT", "tensorShape": {"dim": [{"size": "3"}, {"size": "3"}, {"size": "256"}, {"size": "1"}]}}}}}, {"name": "extra1_conv0/biases", "op": "Const", "attr": {"value": {"tensor": {"dtype": "DT_FLOAT", "tensorShape": {"dim": [{"size": "256"}]}}}, "dtype": {"type": "DT_FLOAT"}}}, {"name": "extra1/weights", "op": "Const", "attr": {"dtype": {"type": "DT_FLOAT"}, "value": {"tensor": {"dtype": "DT_FLOAT", "tensorShape": {"dim": [{"size": "1"}, {"size": "1"}, {"size": "256"}, {"size": "256"}]}}}}}, {"name": "extra1/biases", "op": "Const", "attr": {"value": {"tensor": {"dtype": "DT_FLOAT", "tensorShape": {"dim": [{"size": "256"}]}}}, "dtype": {"type": "DT_FLOAT"}}}, {"name": "extra2_conv0/weights", "op": "Const", "attr": {"dtype": {"type": "DT_FLOAT"}, "value": {"tensor": {"dtype": "DT_FLOAT", "tensorShape": {"dim": [{"size": "3"}, {"size": "3"}, {"size": "256"}, {"size": "1"}]}}}}}, {"name": "extra2_conv0/biases", "op": "Const", "attr": {"dtype": {"type": "DT_FLOAT"}, "value": {"tensor": {"dtype": "DT_FLOAT", "tensorShape": {"dim": [{"size": "256"}]}}}}}, {"name": "extra2/weights", "op": "Const", "attr": {"value": {"tensor": {"dtype": "DT_FLOAT", "tensorShape": {"dim": [{"size": "1"}, {"size": "1"}, {"size": "256"}, {"size": "128"}]}}}, "dtype": {"type": "DT_FLOAT"}}}, {"name": "extra2/biases", "op": "Const", "attr": {"value": {"tensor": {"dtype": "DT_FLOAT", "tensorShape": {"dim": [{"size": "128"}]}}}, "dtype": {"type": "DT_FLOAT"}}}, {"name": "mbox4_conf_conv0/weights", "op": "Const", "attr": {"dtype": {"type": "DT_FLOAT"}, "value": {"tensor": {"dtype": "DT_FLOAT", "tensorShape": {"dim": [{"size": "3"}, {"size": "3"}, {"size": "128"}, {"size": "1"}]}}}}}, {"name": "mbox4_conf_conv0/biases", "op": "Const", "attr": {"value": {"tensor": {"dtype": "DT_FLOAT", "tensorShape": {"dim": [{"size": "128"}]}}}, "dtype": {"type": "DT_FLOAT"}}}, {"name": "mbox4_conf/weights", "op": "Const", "attr": {"value": {"tensor": {"dtype": "DT_FLOAT", "tensorShape": {"dim": [{"size": "1"}, {"size": "1"}, {"size": "128"}, {"size": "18"}]}}}, "dtype": {"type": "DT_FLOAT"}}}, {"name": "mbox4_conf/biases", "op": "Const", "attr": {"dtype": {"type": "DT_FLOAT"}, "value": {"tensor": {"dtype": "DT_FLOAT", "tensorShape": {"dim": [{"size": "18"}]}}}}}, {"name": "mbox_conf_shape", "op": "Const", "attr": {"dtype": {"type": "DT_INT32"}, "value": {"tensor": {"dtype": "DT_INT32", "tensorShape": {"dim": [{"size": "1"}]}}}}}, {"name": "mbox_conf/axis", "op": "Const", "attr": {"value": {"tensor": {"dtype": "DT_INT32", "tensorShape": {}}}, "dtype": {"type": "DT_INT32"}}}, {"name": "Reshape_1/shape", "op": "Const", "attr": {"value": {"tensor": {"dtype": "DT_INT32", "tensorShape": {"dim": [{"size": "2"}]}}}, "dtype": {"type": "DT_INT32"}}}, {"name": "value1", "op": "Const", "attr": {"value": {"tensor": {"dtype": "DT_INT32", "tensorShape": {}}}, "dtype": {"type": "DT_INT32"}}}, {"name": "non_max_suppression/NonMaxSuppressionV3/max_output_size", "op": "Const", "attr": {"value": {"tensor": {"dtype": "DT_INT32", "tensorShape": {}}}, "dtype": {"type": "DT_INT32"}}}, {"name": "non_max_suppression/iou_threshold", "op": "Const", "attr": {"dtype": {"type": "DT_FLOAT"}, "value": {"tensor": {"dtype": "DT_FLOAT", "tensorShape": {}}}}}, {"name": "non_max_suppression/score_threshold", "op": "Const", "attr": {"value": {"tensor": {"dtype": "DT_FLOAT", "tensorShape": {}}}, "dtype": {"type": "DT_FLOAT"}}}, {"name": "value0", "op": "Const", "attr": {"value": {"tensor": {"dtype": "DT_INT32", "tensorShape": {}}}, "dtype": {"type": "DT_INT32"}}}, {"name": "image_tensor", "op": "Placeholder", "attr": {"dtype": {"type": "DT_FLOAT"}, "shape": {"shape": {"dim": [{"size": "-1"}, {"size": "320"}, {"size": "320"}, {"size": "3"}]}}}}, {"name": "mean_sub", "op": "Add", "input": ["image_tensor", "mean_value"], "attr": {"T": {"type": "DT_FLOAT"}}}, {"name": "conv1/Conv2D_pad", "op": "Pad", "input": ["mean_sub", "padding"], "attr": {"T": {"type": "DT_FLOAT"}, "Tpaddings": {"type": "DT_INT32"}}}, {"name": "conv1/conv1", "op": "_FusedConv2D", "input": ["conv1/Conv2D_pad", "conv1/weights", "conv1/biases"], "device": "/device:CPU:0", "attr": {"data_format": {"s": "TkhXQw=="}, "strides": {"list": {"i": ["1", "2", "2", "1"]}}, "use_cudnn_on_gpu": {"b": true}, "explicit_paddings": {"list": {}}, "num_args": {"i": "1"}, "epsilon": {"f": 0.0}, "padding": {"s": "VkFMSUQ="}, "fused_ops": {"list": {"s": ["Qmlhc0FkZA==", "UmVsdTY="]}}, "dilations": {"list": {"i": ["1", "1", "1", "1"]}}, "T": {"type": "DT_FLOAT"}}}, {"name": "block0_conv0/block0_conv0", "op": "_FusedConv2D", "input": ["conv1/conv1", "block0_conv0/weights", "block0_conv0/biases"], "device": "/device:CPU:0", "attr": {"dilations": {"list": {"i": ["1", "1", "1", "1"]}}, "T": {"type": "DT_FLOAT"}, "data_format": {"s": "TkhXQw=="}, "strides": {"list": {"i": ["1", "1", "1", "1"]}}, "use_cudnn_on_gpu": {"b": true}, "explicit_paddings": {"list": {}}, "num_args": {"i": "1"}, "epsilon": {"f": 0.0}, "padding": {"s": "U0FNRQ=="}, "fused_ops": {"list": {"s": ["Qmlhc0FkZA==", "UmVsdTY="]}}}}, {"name": "block0_conv1/depthwise", "op": "FusedDepthwiseConv2dNative", "input": ["block0_conv0/block0_conv0", "block0_conv1/weights", "block0_conv1/biases"], "attr": {"num_args": {"i": "1"}, "padding": {"s": "U0FNRQ=="}, "fused_ops": {"list": {"s": ["Qmlhc0FkZA==", "UmVsdTY="]}}, "dilations": {"list": {"i": ["1", "1", "1", "1"]}}, "T": {"type": "DT_FLOAT"}, "data_format": {"s": "TkhXQw=="}, "strides": {"list": {"i": ["1", "1", "1", "1"]}}, "explicit_paddings": {"list": {}}}}, {"name": "block0_conv2/BiasAdd", "op": "_FusedConv2D", "input": ["block0_conv1/depthwise", "block0_conv2/weights", "block0_conv2/biases"], "device": "/device:CPU:0", "attr": {"dilations": {"list": {"i": ["1", "1", "1", "1"]}}, "T": {"type": "DT_FLOAT"}, "strides": {"list": {"i": ["1", "1", "1", "1"]}}, "data_format": {"s": "TkhXQw=="}, "use_cudnn_on_gpu": {"b": true}, "explicit_paddings": {"list": {}}, "num_args": {"i": "1"}, "epsilon": {"f": 0.0}, "padding": {"s": "U0FNRQ=="}, "fused_ops": {"list": {"s": ["Qmlhc0FkZA=="]}}}}, {"name": "block1_conv0/block1_conv0", "op": "_FusedConv2D", "input": ["block0_conv2/BiasAdd", "block1_conv0/weights", "block1_conv0/biases"], "device": "/device:CPU:0", "attr": {"epsilon": {"f": 0.0}, "padding": {"s": "U0FNRQ=="}, "fused_ops": {"list": {"s": ["Qmlhc0FkZA==", "UmVsdTY="]}}, "dilations": {"list": {"i": ["1", "1", "1", "1"]}}, "T": {"type": "DT_FLOAT"}, "strides": {"list": {"i": ["1", "1", "1", "1"]}}, "data_format": {"s": "TkhXQw=="}, "explicit_paddings": {"list": {}}, "use_cudnn_on_gpu": {"b": true}, "num_args": {"i": "1"}}}, {"name": "block1_conv1/depthwise_pad", "op": "Pad", "input": ["block1_conv0/block1_conv0", "padding"], "attr": {"T": {"type": "DT_FLOAT"}, "Tpaddings": {"type": "DT_INT32"}}}, {"name": "block1_conv1/depthwise", "op": "FusedDepthwiseConv2dNative", "input": ["block1_conv1/depthwise_pad", "block1_conv1/weights", "block1_conv1/biases"], "attr": {"num_args": {"i": "1"}, "padding": {"s": "VkFMSUQ="}, "fused_ops": {"list": {"s": ["Qmlhc0FkZA==", "UmVsdTY="]}}, "dilations": {"list": {"i": ["1", "1", "1", "1"]}}, "T": {"type": "DT_FLOAT"}, "strides": {"list": {"i": ["1", "2", "2", "1"]}}, "data_format": {"s": "TkhXQw=="}, "explicit_paddings": {"list": {}}}}, {"name": "block1_conv2/BiasAdd", "op": "_FusedConv2D", "input": ["block1_conv1/depthwise", "block1_conv2/weights", "block1_conv2/biases"], "device": "/device:CPU:0", "attr": {"num_args": {"i": "1"}, "epsilon": {"f": 0.0}, "padding": {"s": "U0FNRQ=="}, "fused_ops": {"list": {"s": ["Qmlhc0FkZA=="]}}, "dilations": {"list": {"i": ["1", "1", "1", "1"]}}, "T": {"type": "DT_FLOAT"}, "strides": {"list": {"i": ["1", "1", "1", "1"]}}, "data_format": {"s": "TkhXQw=="}, "use_cudnn_on_gpu": {"b": true}, "explicit_paddings": {"list": {}}}}, {"name": "block2_conv0/block2_conv0", "op": "_FusedConv2D", "input": ["block1_conv2/BiasAdd", "block2_conv0/weights", "block2_conv0/biases"], "device": "/device:CPU:0", "attr": {"epsilon": {"f": 0.0}, "padding": {"s": "U0FNRQ=="}, "fused_ops": {"list": {"s": ["Qmlhc0FkZA==", "UmVsdTY="]}}, "dilations": {"list": {"i": ["1", "1", "1", "1"]}}, "T": {"type": "DT_FLOAT"}, "data_format": {"s": "TkhXQw=="}, "strides": {"list": {"i": ["1", "1", "1", "1"]}}, "use_cudnn_on_gpu": {"b": true}, "explicit_paddings": {"list": {}}, "num_args": {"i": "1"}}}, {"name": "block2_conv1/depthwise", "op": "FusedDepthwiseConv2dNative", "input": ["block2_conv0/block2_conv0", "block2_conv1/weights", "block2_conv1/biases"], "attr": {"T": {"type": "DT_FLOAT"}, "strides": {"list": {"i": ["1", "1", "1", "1"]}}, "data_format": {"s": "TkhXQw=="}, "explicit_paddings": {"list": {}}, "num_args": {"i": "1"}, "padding": {"s": "U0FNRQ=="}, "fused_ops": {"list": {"s": ["Qmlhc0FkZA==", "UmVsdTY="]}}, "dilations": {"list": {"i": ["1", "1", "1", "1"]}}}}, {"name": "block2_conv2/BiasAdd", "op": "_FusedConv2D", "input": ["block2_conv1/depthwise", "block2_conv2/weights", "block2_conv2/biases"], "device": "/device:CPU:0", "attr": {"dilations": {"list": {"i": ["1", "1", "1", "1"]}}, "T": {"type": "DT_FLOAT"}, "data_format": {"s": "TkhXQw=="}, "strides": {"list": {"i": ["1", "1", "1", "1"]}}, "explicit_paddings": {"list": {}}, "use_cudnn_on_gpu": {"b": true}, "num_args": {"i": "1"}, "epsilon": {"f": 0.0}, "padding": {"s": "U0FNRQ=="}, "fused_ops": {"list": {"s": ["Qmlhc0FkZA=="]}}}}, {"name": "block2_eltwise", "op": "Add", "input": ["block1_conv2/BiasAdd", "block2_conv2/BiasAdd"], "attr": {"T": {"type": "DT_FLOAT"}}}, {"name": "block3_conv0/block3_conv0", "op": "_FusedConv2D", "input": ["block2_eltwise", "block3_conv0/weights", "block3_conv0/biases"], "device": "/device:CPU:0", "attr": {"dilations": {"list": {"i": ["1", "1", "1", "1"]}}, "T": {"type": "DT_FLOAT"}, "data_format": {"s": "TkhXQw=="}, "strides": {"list": {"i": ["1", "1", "1", "1"]}}, "use_cudnn_on_gpu": {"b": true}, "explicit_paddings": {"list": {}}, "num_args": {"i": "1"}, "epsilon": {"f": 0.0}, "padding": {"s": "U0FNRQ=="}, "fused_ops": {"list": {"s": ["Qmlhc0FkZA==", "UmVsdTY="]}}}}, {"name": "block3_conv1/depthwise_pad", "op": "Pad", "input": ["block3_conv0/block3_conv0", "padding"], "attr": {"T": {"type": "DT_FLOAT"}, "Tpaddings": {"type": "DT_INT32"}}}, {"name": "block3_conv1/depthwise", "op": "FusedDepthwiseConv2dNative", "input": ["block3_conv1/depthwise_pad", "block3_conv1/weights", "block3_conv1/biases"], "attr": {"dilations": {"list": {"i": ["1", "1", "1", "1"]}}, "T": {"type": "DT_FLOAT"}, "data_format": {"s": "TkhXQw=="}, "strides": {"list": {"i": ["1", "2", "2", "1"]}}, "explicit_paddings": {"list": {}}, "num_args": {"i": "1"}, "padding": {"s": "VkFMSUQ="}, "fused_ops": {"list": {"s": ["Qmlhc0FkZA==", "UmVsdTY="]}}}}, {"name": "block3_conv2/BiasAdd", "op": "_FusedConv2D", "input": ["block3_conv1/depthwise", "block3_conv2/weights", "block3_conv2/biases"], "device": "/device:CPU:0", "attr": {"dilations": {"list": {"i": ["1", "1", "1", "1"]}}, "T": {"type": "DT_FLOAT"}, "strides": {"list": {"i": ["1", "1", "1", "1"]}}, "data_format": {"s": "TkhXQw=="}, "use_cudnn_on_gpu": {"b": true}, "explicit_paddings": {"list": {}}, "num_args": {"i": "1"}, "epsilon": {"f": 0.0}, "padding": {"s": "U0FNRQ=="}, "fused_ops": {"list": {"s": ["Qmlhc0FkZA=="]}}}}, {"name": "block4_conv0/block4_conv0", "op": "_FusedConv2D", "input": ["block3_conv2/BiasAdd", "block4_conv0/weights", "block4_conv0/biases"], "device": "/device:CPU:0", "attr": {"T": {"type": "DT_FLOAT"}, "strides": {"list": {"i": ["1", "1", "1", "1"]}}, "data_format": {"s": "TkhXQw=="}, "use_cudnn_on_gpu": {"b": true}, "explicit_paddings": {"list": {}}, "num_args": {"i": "1"}, "epsilon": {"f": 0.0}, "padding": {"s": "U0FNRQ=="}, "fused_ops": {"list": {"s": ["Qmlhc0FkZA==", "UmVsdTY="]}}, "dilations": {"list": {"i": ["1", "1", "1", "1"]}}}}, {"name": "block4_conv1/depthwise", "op": "FusedDepthwiseConv2dNative", "input": ["block4_conv0/block4_conv0", "block4_conv1/weights", "block4_conv1/biases"], "attr": {"dilations": {"list": {"i": ["1", "1", "1", "1"]}}, "T": {"type": "DT_FLOAT"}, "strides": {"list": {"i": ["1", "1", "1", "1"]}}, "data_format": {"s": "TkhXQw=="}, "explicit_paddings": {"list": {}}, "num_args": {"i": "1"}, "padding": {"s": "U0FNRQ=="}, "fused_ops": {"list": {"s": ["Qmlhc0FkZA==", "UmVsdTY="]}}}}, {"name": "block4_conv2/BiasAdd", "op": "_FusedConv2D", "input": ["block4_conv1/depthwise", "block4_conv2/weights", "block4_conv2/biases"], "device": "/device:CPU:0", "attr": {"fused_ops": {"list": {"s": ["Qmlhc0FkZA=="]}}, "dilations": {"list": {"i": ["1", "1", "1", "1"]}}, "T": {"type": "DT_FLOAT"}, "strides": {"list": {"i": ["1", "1", "1", "1"]}}, "data_format": {"s": "TkhXQw=="}, "use_cudnn_on_gpu": {"b": true}, "explicit_paddings": {"list": {}}, "num_args": {"i": "1"}, "epsilon": {"f": 0.0}, "padding": {"s": "U0FNRQ=="}}}, {"name": "block4_eltwise", "op": "Add", "input": ["block3_conv2/BiasAdd", "block4_conv2/BiasAdd"], "attr": {"T": {"type": "DT_FLOAT"}}}, {"name": "block5_conv0/block5_conv0", "op": "_FusedConv2D", "input": ["block4_eltwise", "block5_conv0/weights", "block5_conv0/biases"], "device": "/device:CPU:0", "attr": {"num_args": {"i": "1"}, "epsilon": {"f": 0.0}, "padding": {"s": "U0FNRQ=="}, "fused_ops": {"list": {"s": ["Qmlhc0FkZA==", "UmVsdTY="]}}, "dilations": {"list": {"i": ["1", "1", "1", "1"]}}, "T": {"type": "DT_FLOAT"}, "strides": {"list": {"i": ["1", "1", "1", "1"]}}, "data_format": {"s": "TkhXQw=="}, "explicit_paddings": {"list": {}}, "use_cudnn_on_gpu": {"b": true}}}, {"name": "block5_conv1/depthwise", "op": "FusedDepthwiseConv2dNative", "input": ["block5_conv0/block5_conv0", "block5_conv1/weights", "block5_conv1/biases"], "attr": {"fused_ops": {"list": {"s": ["Qmlhc0FkZA==", "UmVsdTY="]}}, "dilations": {"list": {"i": ["1", "1", "1", "1"]}}, "T": {"type": "DT_FLOAT"}, "strides": {"list": {"i": ["1", "1", "1", "1"]}}, "data_format": {"s": "TkhXQw=="}, "explicit_paddings": {"list": {}}, "num_args": {"i": "1"}, "padding": {"s": "U0FNRQ=="}}}, {"name": "block5_conv2/BiasAdd", "op": "_FusedConv2D", "input": ["block5_conv1/depthwise", "block5_conv2/weights", "block5_conv2/biases"], "device": "/device:CPU:0", "attr": {"dilations": {"list": {"i": ["1", "1", "1", "1"]}}, "T": {"type": "DT_FLOAT"}, "strides": {"list": {"i": ["1", "1", "1", "1"]}}, "data_format": {"s": "TkhXQw=="}, "use_cudnn_on_gpu": {"b": true}, "explicit_paddings": {"list": {}}, "num_args": {"i": "1"}, "epsilon": {"f": 0.0}, "padding": {"s": "U0FNRQ=="}, "fused_ops": {"list": {"s": ["Qmlhc0FkZA=="]}}}}, {"name": "block5_eltwise", "op": "Add", "input": ["block4_eltwise", "block5_conv2/BiasAdd"], "attr": {"T": {"type": "DT_FLOAT"}}}, {"name": "block6_conv0/block6_conv0", "op": "_FusedConv2D", "input": ["block5_eltwise", "block6_conv0/weights", "block6_conv0/biases"], "device": "/device:CPU:0", "attr": {"dilations": {"list": {"i": ["1", "1", "1", "1"]}}, "T": {"type": "DT_FLOAT"}, "strides": {"list": {"i": ["1", "1", "1", "1"]}}, "data_format": {"s": "TkhXQw=="}, "explicit_paddings": {"list": {}}, "use_cudnn_on_gpu": {"b": true}, "num_args": {"i": "1"}, "epsilon": {"f": 0.0}, "padding": {"s": "U0FNRQ=="}, "fused_ops": {"list": {"s": ["Qmlhc0FkZA==", "UmVsdTY="]}}}}, {"name": "block6_conv1/depthwise_pad", "op": "Pad", "input": ["block6_conv0/block6_conv0", "padding"], "attr": {"T": {"type": "DT_FLOAT"}, "Tpaddings": {"type": "DT_INT32"}}}, {"name": "block6_conv1/depthwise", "op": "FusedDepthwiseConv2dNative", "input": ["block6_conv1/depthwise_pad", "block6_conv1/weights", "block6_conv1/biases"], "attr": {"dilations": {"list": {"i": ["1", "1", "1", "1"]}}, "T": {"type": "DT_FLOAT"}, "data_format": {"s": "TkhXQw=="}, "strides": {"list": {"i": ["1", "2", "2", "1"]}}, "explicit_paddings": {"list": {}}, "num_args": {"i": "1"}, "padding": {"s": "VkFMSUQ="}, "fused_ops": {"list": {"s": ["Qmlhc0FkZA==", "UmVsdTY="]}}}}, {"name": "block6_conv2/BiasAdd", "op": "_FusedConv2D", "input": ["block6_conv1/depthwise", "block6_conv2/weights", "block6_conv2/biases"], "device": "/device:CPU:0", "attr": {"fused_ops": {"list": {"s": ["Qmlhc0FkZA=="]}}, "dilations": {"list": {"i": ["1", "1", "1", "1"]}}, "T": {"type": "DT_FLOAT"}, "data_format": {"s": "TkhXQw=="}, "strides": {"list": {"i": ["1", "1", "1", "1"]}}, "use_cudnn_on_gpu": {"b": true}, "explicit_paddings": {"list": {}}, "num_args": {"i": "1"}, "epsilon": {"f": 0.0}, "padding": {"s": "U0FNRQ=="}}}, {"name": "block7_conv0/block7_conv0", "op": "_FusedConv2D", "input": ["block6_conv2/BiasAdd", "block7_conv0/weights", "block7_conv0/biases"], "device": "/device:CPU:0", "attr": {"num_args": {"i": "1"}, "epsilon": {"f": 0.0}, "padding": {"s": "U0FNRQ=="}, "fused_ops": {"list": {"s": ["Qmlhc0FkZA==", "UmVsdTY="]}}, "dilations": {"list": {"i": ["1", "1", "1", "1"]}}, "T": {"type": "DT_FLOAT"}, "data_format": {"s": "TkhXQw=="}, "strides": {"list": {"i": ["1", "1", "1", "1"]}}, "use_cudnn_on_gpu": {"b": true}, "explicit_paddings": {"list": {}}}}, {"name": "block7_conv1/depthwise", "op": "FusedDepthwiseConv2dNative", "input": ["block7_conv0/block7_conv0", "block7_conv1/weights", "block7_conv1/biases"], "attr": {"padding": {"s": "U0FNRQ=="}, "fused_ops": {"list": {"s": ["Qmlhc0FkZA==", "UmVsdTY="]}}, "dilations": {"list": {"i": ["1", "1", "1", "1"]}}, "T": {"type": "DT_FLOAT"}, "data_format": {"s": "TkhXQw=="}, "strides": {"list": {"i": ["1", "1", "1", "1"]}}, "explicit_paddings": {"list": {}}, "num_args": {"i": "1"}}}, {"name": "block7_conv2/BiasAdd", "op": "_FusedConv2D", "input": ["block7_conv1/depthwise", "block7_conv2/weights", "block7_conv2/biases"], "device": "/device:CPU:0", "attr": {"num_args": {"i": "1"}, "epsilon": {"f": 0.0}, "padding": {"s": "U0FNRQ=="}, "fused_ops": {"list": {"s": ["Qmlhc0FkZA=="]}}, "dilations": {"list": {"i": ["1", "1", "1", "1"]}}, "T": {"type": "DT_FLOAT"}, "data_format": {"s": "TkhXQw=="}, "strides": {"list": {"i": ["1", "1", "1", "1"]}}, "use_cudnn_on_gpu": {"b": true}, "explicit_paddings": {"list": {}}}}, {"name": "block7_eltwise", "op": "Add", "input": ["block6_conv2/BiasAdd", "block7_conv2/BiasAdd"], "attr": {"T": {"type": "DT_FLOAT"}}}, {"name": "block8_conv0/block8_conv0", "op": "_FusedConv2D", "input": ["block7_eltwise", "block8_conv0/weights", "block8_conv0/biases"], "device": "/device:CPU:0", "attr": {"fused_ops": {"list": {"s": ["Qmlhc0FkZA==", "UmVsdTY="]}}, "dilations": {"list": {"i": ["1", "1", "1", "1"]}}, "T": {"type": "DT_FLOAT"}, "data_format": {"s": "TkhXQw=="}, "strides": {"list": {"i": ["1", "1", "1", "1"]}}, "use_cudnn_on_gpu": {"b": true}, "explicit_paddings": {"list": {}}, "num_args": {"i": "1"}, "epsilon": {"f": 0.0}, "padding": {"s": "U0FNRQ=="}}}, {"name": "block8_conv1/depthwise", "op": "FusedDepthwiseConv2dNative", "input": ["block8_conv0/block8_conv0", "block8_conv1/weights", "block8_conv1/biases"], "attr": {"data_format": {"s": "TkhXQw=="}, "strides": {"list": {"i": ["1", "1", "1", "1"]}}, "explicit_paddings": {"list": {}}, "num_args": {"i": "1"}, "padding": {"s": "U0FNRQ=="}, "fused_ops": {"list": {"s": ["Qmlhc0FkZA==", "UmVsdTY="]}}, "dilations": {"list": {"i": ["1", "1", "1", "1"]}}, "T": {"type": "DT_FLOAT"}}}, {"name": "block8_conv2/BiasAdd", "op": "_FusedConv2D", "input": ["block8_conv1/depthwise", "block8_conv2/weights", "block8_conv2/biases"], "device": "/device:CPU:0", "attr": {"dilations": {"list": {"i": ["1", "1", "1", "1"]}}, "T": {"type": "DT_FLOAT"}, "data_format": {"s": "TkhXQw=="}, "strides": {"list": {"i": ["1", "1", "1", "1"]}}, "explicit_paddings": {"list": {}}, "use_cudnn_on_gpu": {"b": true}, "num_args": {"i": "1"}, "epsilon": {"f": 0.0}, "padding": {"s": "U0FNRQ=="}, "fused_ops": {"list": {"s": ["Qmlhc0FkZA=="]}}}}, {"name": "block8_eltwise", "op": "Add", "input": ["block7_eltwise", "block8_conv2/BiasAdd"], "attr": {"T": {"type": "DT_FLOAT"}}}, {"name": "block9_conv0/block9_conv0", "op": "_FusedConv2D", "input": ["block8_eltwise", "block9_conv0/weights", "block9_conv0/biases"], "device": "/device:CPU:0", "attr": {"epsilon": {"f": 0.0}, "padding": {"s": "U0FNRQ=="}, "fused_ops": {"list": {"s": ["Qmlhc0FkZA==", "UmVsdTY="]}}, "dilations": {"list": {"i": ["1", "1", "1", "1"]}}, "T": {"type": "DT_FLOAT"}, "data_format": {"s": "TkhXQw=="}, "strides": {"list": {"i": ["1", "1", "1", "1"]}}, "use_cudnn_on_gpu": {"b": true}, "explicit_paddings": {"list": {}}, "num_args": {"i": "1"}}}, {"name": "block9_conv1/depthwise", "op": "FusedDepthwiseConv2dNative", "input": ["block9_conv0/block9_conv0", "block9_conv1/weights", "block9_conv1/biases"], "attr": {"data_format": {"s": "TkhXQw=="}, "strides": {"list": {"i": ["1", "1", "1", "1"]}}, "explicit_paddings": {"list": {}}, "num_args": {"i": "1"}, "padding": {"s": "U0FNRQ=="}, "fused_ops": {"list": {"s": ["Qmlhc0FkZA==", "UmVsdTY="]}}, "dilations": {"list": {"i": ["1", "1", "1", "1"]}}, "T": {"type": "DT_FLOAT"}}}, {"name": "block9_conv2/BiasAdd", "op": "_FusedConv2D", "input": ["block9_conv1/depthwise", "block9_conv2/weights", "block9_conv2/biases"], "device": "/device:CPU:0", "attr": {"epsilon": {"f": 0.0}, "padding": {"s": "U0FNRQ=="}, "fused_ops": {"list": {"s": ["Qmlhc0FkZA=="]}}, "dilations": {"list": {"i": ["1", "1", "1", "1"]}}, "T": {"type": "DT_FLOAT"}, "strides": {"list": {"i": ["1", "1", "1", "1"]}}, "data_format": {"s": "TkhXQw=="}, "explicit_paddings": {"list": {}}, "use_cudnn_on_gpu": {"b": true}, "num_args": {"i": "1"}}}, {"name": "block9_eltwise", "op": "Add", "input": ["block8_eltwise", "block9_conv2/BiasAdd"], "attr": {"T": {"type": "DT_FLOAT"}}}, {"name": "block10_conv0/block10_conv0", "op": "_FusedConv2D", "input": ["block9_eltwise", "block10_conv0/weights", "block10_conv0/biases"], "device": "/device:CPU:0", "attr": {"T": {"type": "DT_FLOAT"}, "strides": {"list": {"i": ["1", "1", "1", "1"]}}, "data_format": {"s": "TkhXQw=="}, "use_cudnn_on_gpu": {"b": true}, "explicit_paddings": {"list": {}}, "num_args": {"i": "1"}, "epsilon": {"f": 0.0}, "padding": {"s": "U0FNRQ=="}, "fused_ops": {"list": {"s": ["Qmlhc0FkZA==", "UmVsdTY="]}}, "dilations": {"list": {"i": ["1", "1", "1", "1"]}}}}, {"name": "block10_conv1/depthwise", "op": "FusedDepthwiseConv2dNative", "input": ["block10_conv0/block10_conv0", "block10_conv1/weights", "block10_conv1/biases"], "attr": {"fused_ops": {"list": {"s": ["Qmlhc0FkZA==", "UmVsdTY="]}}, "dilations": {"list": {"i": ["1", "1", "1", "1"]}}, "T": {"type": "DT_FLOAT"}, "strides": {"list": {"i": ["1", "1", "1", "1"]}}, "data_format": {"s": "TkhXQw=="}, "explicit_paddings": {"list": {}}, "num_args": {"i": "1"}, "padding": {"s": "U0FNRQ=="}}}, {"name": "block10_conv2/BiasAdd", "op": "_FusedConv2D", "input": ["block10_conv1/depthwise", "block10_conv2/weights", "block10_conv2/biases"], "device": "/device:CPU:0", "attr": {"num_args": {"i": "1"}, "epsilon": {"f": 0.0}, "padding": {"s": "U0FNRQ=="}, "fused_ops": {"list": {"s": ["Qmlhc0FkZA=="]}}, "dilations": {"list": {"i": ["1", "1", "1", "1"]}}, "T": {"type": "DT_FLOAT"}, "data_format": {"s": "TkhXQw=="}, "strides": {"list": {"i": ["1", "1", "1", "1"]}}, "explicit_paddings": {"list": {}}, "use_cudnn_on_gpu": {"b": true}}}, {"name": "block11_conv0/block11_conv0", "op": "_FusedConv2D", "input": ["block10_conv2/BiasAdd", "block11_conv0/weights", "block11_conv0/biases"], "device": "/device:CPU:0", "attr": {"epsilon": {"f": 0.0}, "padding": {"s": "U0FNRQ=="}, "fused_ops": {"list": {"s": ["Qmlhc0FkZA==", "UmVsdTY="]}}, "dilations": {"list": {"i": ["1", "1", "1", "1"]}}, "T": {"type": "DT_FLOAT"}, "data_format": {"s": "TkhXQw=="}, "strides": {"list": {"i": ["1", "1", "1", "1"]}}, "use_cudnn_on_gpu": {"b": true}, "explicit_paddings": {"list": {}}, "num_args": {"i": "1"}}}, {"name": "block11_conv1/depthwise", "op": "FusedDepthwiseConv2dNative", "input": ["block11_conv0/block11_conv0", "block11_conv1/weights", "block11_conv1/biases"], "attr": {"dilations": {"list": {"i": ["1", "1", "1", "1"]}}, "T": {"type": "DT_FLOAT"}, "data_format": {"s": "TkhXQw=="}, "strides": {"list": {"i": ["1", "1", "1", "1"]}}, "explicit_paddings": {"list": {}}, "num_args": {"i": "1"}, "padding": {"s": "U0FNRQ=="}, "fused_ops": {"list": {"s": ["Qmlhc0FkZA==", "UmVsdTY="]}}}}, {"name": "block11_conv2/BiasAdd", "op": "_FusedConv2D", "input": ["block11_conv1/depthwise", "block11_conv2/weights", "block11_conv2/biases"], "device": "/device:CPU:0", "attr": {"dilations": {"list": {"i": ["1", "1", "1", "1"]}}, "T": {"type": "DT_FLOAT"}, "strides": {"list": {"i": ["1", "1", "1", "1"]}}, "data_format": {"s": "TkhXQw=="}, "use_cudnn_on_gpu": {"b": true}, "explicit_paddings": {"list": {}}, "num_args": {"i": "1"}, "epsilon": {"f": 0.0}, "padding": {"s": "U0FNRQ=="}, "fused_ops": {"list": {"s": ["Qmlhc0FkZA=="]}}}}, {"name": "block11_eltwise", "op": "Add", "input": ["block10_conv2/BiasAdd", "block11_conv2/BiasAdd"], "attr": {"T": {"type": "DT_FLOAT"}}}, {"name": "block12_conv0/block12_conv0", "op": "_FusedConv2D", "input": ["block11_eltwise", "block12_conv0/weights", "block12_conv0/biases"], "device": "/device:CPU:0", "attr": {"dilations": {"list": {"i": ["1", "1", "1", "1"]}}, "T": {"type": "DT_FLOAT"}, "data_format": {"s": "TkhXQw=="}, "strides": {"list": {"i": ["1", "1", "1", "1"]}}, "explicit_paddings": {"list": {}}, "use_cudnn_on_gpu": {"b": true}, "num_args": {"i": "1"}, "epsilon": {"f": 0.0}, "padding": {"s": "U0FNRQ=="}, "fused_ops": {"list": {"s": ["Qmlhc0FkZA==", "UmVsdTY="]}}}}, {"name": "block12_conv1/depthwise", "op": "FusedDepthwiseConv2dNative", "input": ["block12_conv0/block12_conv0", "block12_conv1/weights", "block12_conv1/biases"], "attr": {"data_format": {"s": "TkhXQw=="}, "strides": {"list": {"i": ["1", "1", "1", "1"]}}, "explicit_paddings": {"list": {}}, "num_args": {"i": "1"}, "padding": {"s": "U0FNRQ=="}, "fused_ops": {"list": {"s": ["Qmlhc0FkZA==", "UmVsdTY="]}}, "dilations": {"list": {"i": ["1", "1", "1", "1"]}}, "T": {"type": "DT_FLOAT"}}}, {"name": "block12_conv2/BiasAdd", "op": "_FusedConv2D", "input": ["block12_conv1/depthwise", "block12_conv2/weights", "block12_conv2/biases"], "device": "/device:CPU:0", "attr": {"dilations": {"list": {"i": ["1", "1", "1", "1"]}}, "T": {"type": "DT_FLOAT"}, "data_format": {"s": "TkhXQw=="}, "strides": {"list": {"i": ["1", "1", "1", "1"]}}, "explicit_paddings": {"list": {}}, "use_cudnn_on_gpu": {"b": true}, "num_args": {"i": "1"}, "epsilon": {"f": 0.0}, "padding": {"s": "U0FNRQ=="}, "fused_ops": {"list": {"s": ["Qmlhc0FkZA=="]}}}}, {"name": "block12_eltwise", "op": "Add", "input": ["block11_eltwise", "block12_conv2/BiasAdd"], "attr": {"T": {"type": "DT_FLOAT"}}}, {"name": "block13_conv0/block13_conv0", "op": "_FusedConv2D", "input": ["block12_eltwise", "block13_conv0/weights", "block13_conv0/biases"], "device": "/device:CPU:0", "attr": {"strides": {"list": {"i": ["1", "1", "1", "1"]}}, "data_format": {"s": "TkhXQw=="}, "explicit_paddings": {"list": {}}, "use_cudnn_on_gpu": {"b": true}, "num_args": {"i": "1"}, "epsilon": {"f": 0.0}, "padding": {"s": "U0FNRQ=="}, "fused_ops": {"list": {"s": ["Qmlhc0FkZA==", "UmVsdTY="]}}, "dilations": {"list": {"i": ["1", "1", "1", "1"]}}, "T": {"type": "DT_FLOAT"}}}, {"name": "mbox0_loc_conv0/depthwise", "op": "FusedDepthwiseConv2dNative", "input": ["block13_conv0/block13_conv0", "mbox0_loc_conv0/weights", "mbox0_loc_conv0/biases"], "attr": {"num_args": {"i": "1"}, "padding": {"s": "U0FNRQ=="}, "fused_ops": {"list": {"s": ["Qmlhc0FkZA==", "UmVsdTY="]}}, "dilations": {"list": {"i": ["1", "1", "1", "1"]}}, "T": {"type": "DT_FLOAT"}, "data_format": {"s": "TkhXQw=="}, "strides": {"list": {"i": ["1", "1", "1", "1"]}}, "explicit_paddings": {"list": {}}}}, {"name": "mbox0_conf_conv0/depthwise", "op": "FusedDepthwiseConv2dNative", "input": ["block13_conv0/block13_conv0", "mbox0_conf_conv0/weights", "mbox0_conf_conv0/biases"], "attr": {"num_args": {"i": "1"}, "padding": {"s": "U0FNRQ=="}, "fused_ops": {"list": {"s": ["Qmlhc0FkZA==", "UmVsdTY="]}}, "dilations": {"list": {"i": ["1", "1", "1", "1"]}}, "T": {"type": "DT_FLOAT"}, "data_format": {"s": "TkhXQw=="}, "strides": {"list": {"i": ["1", "1", "1", "1"]}}, "explicit_paddings": {"list": {}}}}, {"name": "block13_conv1/depthwise_pad", "op": "Pad", "input": ["block13_conv0/block13_conv0", "padding"], "attr": {"T": {"type": "DT_FLOAT"}, "Tpaddings": {"type": "DT_INT32"}}}, {"name": "block13_conv1/depthwise", "op": "FusedDepthwiseConv2dNative", "input": ["block13_conv1/depthwise_pad", "block13_conv1/weights", "block13_conv1/biases"], "attr": {"fused_ops": {"list": {"s": ["Qmlhc0FkZA==", "UmVsdTY="]}}, "dilations": {"list": {"i": ["1", "1", "1", "1"]}}, "T": {"type": "DT_FLOAT"}, "strides": {"list": {"i": ["1", "2", "2", "1"]}}, "data_format": {"s": "TkhXQw=="}, "explicit_paddings": {"list": {}}, "num_args": {"i": "1"}, "padding": {"s": "VkFMSUQ="}}}, {"name": "mbox0_loc/BiasAdd", "op": "_FusedConv2D", "input": ["mbox0_loc_conv0/depthwise", "mbox0_loc/weights", "mbox0_loc/biases"], "device": "/device:CPU:0", "attr": {"T": {"type": "DT_FLOAT"}, "strides": {"list": {"i": ["1", "1", "1", "1"]}}, "data_format": {"s": "TkhXQw=="}, "use_cudnn_on_gpu": {"b": true}, "explicit_paddings": {"list": {}}, "num_args": {"i": "1"}, "epsilon": {"f": 0.0}, "padding": {"s": "U0FNRQ=="}, "fused_ops": {"list": {"s": ["Qmlhc0FkZA=="]}}, "dilations": {"list": {"i": ["1", "1", "1", "1"]}}}}, {"name": "mbox0_conf/BiasAdd", "op": "_FusedConv2D", "input": ["mbox0_conf_conv0/depthwise", "mbox0_conf/weights", "mbox0_conf/biases"], "device": "/device:CPU:0", "attr": {"dilations": {"list": {"i": ["1", "1", "1", "1"]}}, "T": {"type": "DT_FLOAT"}, "strides": {"list": {"i": ["1", "1", "1", "1"]}}, "data_format": {"s": "TkhXQw=="}, "use_cudnn_on_gpu": {"b": true}, "explicit_paddings": {"list": {}}, "num_args": {"i": "1"}, "epsilon": {"f": 0.0}, "padding": {"s": "U0FNRQ=="}, "fused_ops": {"list": {"s": ["Qmlhc0FkZA=="]}}}}, {"name": "mbox0_loc_flatten", "op": "Reshape", "input": ["mbox0_loc/BiasAdd", "mbox_loc_shape"], "attr": {"T": {"type": "DT_FLOAT"}, "Tshape": {"type": "DT_INT32"}}}, {"name": "mbox0_conf_flatten", "op": "Reshape", "input": ["mbox0_conf/BiasAdd", "mbox_conf_shape"], "attr": {"T": {"type": "DT_FLOAT"}, "Tshape": {"type": "DT_INT32"}}}, {"name": "block13_conv2/BiasAdd", "op": "_FusedConv2D", "input": ["block13_conv1/depthwise", "block13_conv2/weights", "block13_conv2/biases"], "device": "/device:CPU:0", "attr": {"dilations": {"list": {"i": ["1", "1", "1", "1"]}}, "T": {"type": "DT_FLOAT"}, "strides": {"list": {"i": ["1", "1", "1", "1"]}}, "data_format": {"s": "TkhXQw=="}, "use_cudnn_on_gpu": {"b": true}, "explicit_paddings": {"list": {}}, "num_args": {"i": "1"}, "epsilon": {"f": 0.0}, "padding": {"s": "U0FNRQ=="}, "fused_ops": {"list": {"s": ["Qmlhc0FkZA=="]}}}}, {"name": "block14_conv0/block14_conv0", "op": "_FusedConv2D", "input": ["block13_conv2/BiasAdd", "block14_conv0/weights", "block14_conv0/biases"], "device": "/device:CPU:0", "attr": {"dilations": {"list": {"i": ["1", "1", "1", "1"]}}, "T": {"type": "DT_FLOAT"}, "strides": {"list": {"i": ["1", "1", "1", "1"]}}, "data_format": {"s": "TkhXQw=="}, "use_cudnn_on_gpu": {"b": true}, "explicit_paddings": {"list": {}}, "num_args": {"i": "1"}, "epsilon": {"f": 0.0}, "padding": {"s": "U0FNRQ=="}, "fused_ops": {"list": {"s": ["Qmlhc0FkZA==", "UmVsdTY="]}}}}, {"name": "block14_conv1/depthwise", "op": "FusedDepthwiseConv2dNative", "input": ["block14_conv0/block14_conv0", "block14_conv1/weights", "block14_conv1/biases"], "attr": {"dilations": {"list": {"i": ["1", "1", "1", "1"]}}, "T": {"type": "DT_FLOAT"}, "data_format": {"s": "TkhXQw=="}, "strides": {"list": {"i": ["1", "1", "1", "1"]}}, "explicit_paddings": {"list": {}}, "num_args": {"i": "1"}, "padding": {"s": "U0FNRQ=="}, "fused_ops": {"list": {"s": ["Qmlhc0FkZA==", "UmVsdTY="]}}}}, {"name": "block14_conv2/BiasAdd", "op": "_FusedConv2D", "input": ["block14_conv1/depthwise", "block14_conv2/weights", "block14_conv2/biases"], "device": "/device:CPU:0", "attr": {"dilations": {"list": {"i": ["1", "1", "1", "1"]}}, "T": {"type": "DT_FLOAT"}, "strides": {"list": {"i": ["1", "1", "1", "1"]}}, "data_format": {"s": "TkhXQw=="}, "explicit_paddings": {"list": {}}, "use_cudnn_on_gpu": {"b": true}, "num_args": {"i": "1"}, "epsilon": {"f": 0.0}, "padding": {"s": "U0FNRQ=="}, "fused_ops": {"list": {"s": ["Qmlhc0FkZA=="]}}}}, {"name": "block14_eltwise", "op": "Add", "input": ["block13_conv2/BiasAdd", "block14_conv2/BiasAdd"], "attr": {"T": {"type": "DT_FLOAT"}}}, {"name": "block15_conv0/block15_conv0", "op": "_FusedConv2D", "input": ["block14_eltwise", "block15_conv0/weights", "block15_conv0/biases"], "device": "/device:CPU:0", "attr": {"fused_ops": {"list": {"s": ["Qmlhc0FkZA==", "UmVsdTY="]}}, "dilations": {"list": {"i": ["1", "1", "1", "1"]}}, "T": {"type": "DT_FLOAT"}, "strides": {"list": {"i": ["1", "1", "1", "1"]}}, "data_format": {"s": "TkhXQw=="}, "use_cudnn_on_gpu": {"b": true}, "explicit_paddings": {"list": {}}, "num_args": {"i": "1"}, "epsilon": {"f": 0.0}, "padding": {"s": "U0FNRQ=="}}}, {"name": "block15_conv1/depthwise", "op": "FusedDepthwiseConv2dNative", "input": ["block15_conv0/block15_conv0", "block15_conv1/weights", "block15_conv1/biases"], "attr": {"num_args": {"i": "1"}, "padding": {"s": "U0FNRQ=="}, "fused_ops": {"list": {"s": ["Qmlhc0FkZA==", "UmVsdTY="]}}, "dilations": {"list": {"i": ["1", "1", "1", "1"]}}, "T": {"type": "DT_FLOAT"}, "data_format": {"s": "TkhXQw=="}, "strides": {"list": {"i": ["1", "1", "1", "1"]}}, "explicit_paddings": {"list": {}}}}, {"name": "block15_conv2/BiasAdd", "op": "_FusedConv2D", "input": ["block15_conv1/depthwise", "block15_conv2/weights", "block15_conv2/biases"], "device": "/device:CPU:0", "attr": {"dilations": {"list": {"i": ["1", "1", "1", "1"]}}, "T": {"type": "DT_FLOAT"}, "strides": {"list": {"i": ["1", "1", "1", "1"]}}, "data_format": {"s": "TkhXQw=="}, "use_cudnn_on_gpu": {"b": true}, "explicit_paddings": {"list": {}}, "num_args": {"i": "1"}, "epsilon": {"f": 0.0}, "padding": {"s": "U0FNRQ=="}, "fused_ops": {"list": {"s": ["Qmlhc0FkZA=="]}}}}, {"name": "block15_eltwise", "op": "Add", "input": ["block14_eltwise", "block15_conv2/BiasAdd"], "attr": {"T": {"type": "DT_FLOAT"}}}, {"name": "block16_conv0/block16_conv0", "op": "_FusedConv2D", "input": ["block15_eltwise", "block16_conv0/weights", "block16_conv0/biases"], "device": "/device:CPU:0", "attr": {"fused_ops": {"list": {"s": ["Qmlhc0FkZA==", "UmVsdTY="]}}, "dilations": {"list": {"i": ["1", "1", "1", "1"]}}, "T": {"type": "DT_FLOAT"}, "data_format": {"s": "TkhXQw=="}, "strides": {"list": {"i": ["1", "1", "1", "1"]}}, "use_cudnn_on_gpu": {"b": true}, "explicit_paddings": {"list": {}}, "num_args": {"i": "1"}, "epsilon": {"f": 0.0}, "padding": {"s": "U0FNRQ=="}}}, {"name": "block16_conv1/depthwise", "op": "FusedDepthwiseConv2dNative", "input": ["block16_conv0/block16_conv0", "block16_conv1/weights", "block16_conv1/biases"], "attr": {"dilations": {"list": {"i": ["1", "1", "1", "1"]}}, "T": {"type": "DT_FLOAT"}, "strides": {"list": {"i": ["1", "1", "1", "1"]}}, "data_format": {"s": "TkhXQw=="}, "explicit_paddings": {"list": {}}, "num_args": {"i": "1"}, "padding": {"s": "U0FNRQ=="}, "fused_ops": {"list": {"s": ["Qmlhc0FkZA==", "UmVsdTY="]}}}}, {"name": "block16_conv2/BiasAdd", "op": "_FusedConv2D", "input": ["block16_conv1/depthwise", "block16_conv2/weights", "block16_conv2/biases"], "device": "/device:CPU:0", "attr": {"fused_ops": {"list": {"s": ["Qmlhc0FkZA=="]}}, "dilations": {"list": {"i": ["1", "1", "1", "1"]}}, "T": {"type": "DT_FLOAT"}, "data_format": {"s": "TkhXQw=="}, "strides": {"list": {"i": ["1", "1", "1", "1"]}}, "explicit_paddings": {"list": {}}, "use_cudnn_on_gpu": {"b": true}, "num_args": {"i": "1"}, "epsilon": {"f": 0.0}, "padding": {"s": "U0FNRQ=="}}}, {"name": "conv2/conv2", "op": "_FusedConv2D", "input": ["block16_conv2/BiasAdd", "conv2/weights", "conv2/biases"], "device": "/device:CPU:0", "attr": {"dilations": {"list": {"i": ["1", "1", "1", "1"]}}, "T": {"type": "DT_FLOAT"}, "strides": {"list": {"i": ["1", "1", "1", "1"]}}, "data_format": {"s": "TkhXQw=="}, "use_cudnn_on_gpu": {"b": true}, "explicit_paddings": {"list": {}}, "num_args": {"i": "1"}, "epsilon": {"f": 0.0}, "padding": {"s": "U0FNRQ=="}, "fused_ops": {"list": {"s": ["Qmlhc0FkZA==", "UmVsdTY="]}}}}, {"name": "mbox1_loc_conv0/depthwise", "op": "FusedDepthwiseConv2dNative", "input": ["conv2/conv2", "mbox1_loc_conv0/weights", "mbox1_loc_conv0/biases"], "attr": {"num_args": {"i": "1"}, "padding": {"s": "U0FNRQ=="}, "fused_ops": {"list": {"s": ["Qmlhc0FkZA==", "UmVsdTY="]}}, "dilations": {"list": {"i": ["1", "1", "1", "1"]}}, "T": {"type": "DT_FLOAT"}, "data_format": {"s": "TkhXQw=="}, "strides": {"list": {"i": ["1", "1", "1", "1"]}}, "explicit_paddings": {"list": {}}}}, {"name": "mbox1_conf_conv0/depthwise", "op": "FusedDepthwiseConv2dNative", "input": ["conv2/conv2", "mbox1_conf_conv0/weights", "mbox1_conf_conv0/biases"], "attr": {"T": {"type": "DT_FLOAT"}, "data_format": {"s": "TkhXQw=="}, "strides": {"list": {"i": ["1", "1", "1", "1"]}}, "explicit_paddings": {"list": {}}, "num_args": {"i": "1"}, "padding": {"s": "U0FNRQ=="}, "fused_ops": {"list": {"s": ["Qmlhc0FkZA==", "UmVsdTY="]}}, "dilations": {"list": {"i": ["1", "1", "1", "1"]}}}}, {"name": "extra0_conv0/depthwise_pad", "op": "Pad", "input": ["conv2/conv2", "padding"], "attr": {"T": {"type": "DT_FLOAT"}, "Tpaddings": {"type": "DT_INT32"}}}, {"name": "extra0_conv0/depthwise", "op": "FusedDepthwiseConv2dNative", "input": ["extra0_conv0/depthwise_pad", "extra0_conv0/weights", "extra0_conv0/biases"], "attr": {"dilations": {"list": {"i": ["1", "1", "1", "1"]}}, "T": {"type": "DT_FLOAT"}, "data_format": {"s": "TkhXQw=="}, "strides": {"list": {"i": ["1", "2", "2", "1"]}}, "explicit_paddings": {"list": {}}, "num_args": {"i": "1"}, "padding": {"s": "VkFMSUQ="}, "fused_ops": {"list": {"s": ["Qmlhc0FkZA==", "UmVsdTY="]}}}}, {"name": "mbox1_loc/BiasAdd", "op": "_FusedConv2D", "input": ["mbox1_loc_conv0/depthwise", "mbox1_loc/weights", "mbox1_loc/biases"], "device": "/device:CPU:0", "attr": {"fused_ops": {"list": {"s": ["Qmlhc0FkZA=="]}}, "dilations": {"list": {"i": ["1", "1", "1", "1"]}}, "T": {"type": "DT_FLOAT"}, "strides": {"list": {"i": ["1", "1", "1", "1"]}}, "data_format": {"s": "TkhXQw=="}, "explicit_paddings": {"list": {}}, "use_cudnn_on_gpu": {"b": true}, "num_args": {"i": "1"}, "epsilon": {"f": 0.0}, "padding": {"s": "U0FNRQ=="}}}, {"name": "mbox1_conf/BiasAdd", "op": "_FusedConv2D", "input": ["mbox1_conf_conv0/depthwise", "mbox1_conf/weights", "mbox1_conf/biases"], "device": "/device:CPU:0", "attr": {"dilations": {"list": {"i": ["1", "1", "1", "1"]}}, "T": {"type": "DT_FLOAT"}, "strides": {"list": {"i": ["1", "1", "1", "1"]}}, "data_format": {"s": "TkhXQw=="}, "explicit_paddings": {"list": {}}, "use_cudnn_on_gpu": {"b": true}, "num_args": {"i": "1"}, "epsilon": {"f": 0.0}, "padding": {"s": "U0FNRQ=="}, "fused_ops": {"list": {"s": ["Qmlhc0FkZA=="]}}}}, {"name": "mbox1_loc_flatten", "op": "Reshape", "input": ["mbox1_loc/BiasAdd", "mbox_loc_shape"], "attr": {"T": {"type": "DT_FLOAT"}, "Tshape": {"type": "DT_INT32"}}}, {"name": "mbox1_conf_flatten", "op": "Reshape", "input": ["mbox1_conf/BiasAdd", "mbox_conf_shape"], "attr": {"T": {"type": "DT_FLOAT"}, "Tshape": {"type": "DT_INT32"}}}, {"name": "extra0/extra0", "op": "_FusedConv2D", "input": ["extra0_conv0/depthwise", "extra0/weights", "extra0/biases"], "device": "/device:CPU:0", "attr": {"num_args": {"i": "1"}, "epsilon": {"f": 0.0}, "padding": {"s": "U0FNRQ=="}, "fused_ops": {"list": {"s": ["Qmlhc0FkZA==", "UmVsdTY="]}}, "dilations": {"list": {"i": ["1", "1", "1", "1"]}}, "T": {"type": "DT_FLOAT"}, "strides": {"list": {"i": ["1", "1", "1", "1"]}}, "data_format": {"s": "TkhXQw=="}, "use_cudnn_on_gpu": {"b": true}, "explicit_paddings": {"list": {}}}}, {"name": "mbox2_loc_conv0/depthwise", "op": "FusedDepthwiseConv2dNative", "input": ["extra0/extra0", "mbox2_loc_conv0/weights", "mbox2_loc_conv0/biases"], "attr": {"num_args": {"i": "1"}, "padding": {"s": "U0FNRQ=="}, "fused_ops": {"list": {"s": ["Qmlhc0FkZA==", "UmVsdTY="]}}, "dilations": {"list": {"i": ["1", "1", "1", "1"]}}, "T": {"type": "DT_FLOAT"}, "strides": {"list": {"i": ["1", "1", "1", "1"]}}, "data_format": {"s": "TkhXQw=="}, "explicit_paddings": {"list": {}}}}, {"name": "mbox2_conf_conv0/depthwise", "op": "FusedDepthwiseConv2dNative", "input": ["extra0/extra0", "mbox2_conf_conv0/weights", "mbox2_conf_conv0/biases"], "attr": {"T": {"type": "DT_FLOAT"}, "data_format": {"s": "TkhXQw=="}, "strides": {"list": {"i": ["1", "1", "1", "1"]}}, "explicit_paddings": {"list": {}}, "num_args": {"i": "1"}, "padding": {"s": "U0FNRQ=="}, "fused_ops": {"list": {"s": ["Qmlhc0FkZA==", "UmVsdTY="]}}, "dilations": {"list": {"i": ["1", "1", "1", "1"]}}}}, {"name": "extra1_conv0/depthwise", "op": "FusedDepthwiseConv2dNative", "input": ["extra0/extra0", "extra1_conv0/weights", "extra1_conv0/biases"], "attr": {"padding": {"s": "VkFMSUQ="}, "fused_ops": {"list": {"s": ["Qmlhc0FkZA==", "UmVsdTY="]}}, "dilations": {"list": {"i": ["1", "1", "1", "1"]}}, "T": {"type": "DT_FLOAT"}, "data_format": {"s": "TkhXQw=="}, "strides": {"list": {"i": ["1", "1", "1", "1"]}}, "explicit_paddings": {"list": {}}, "num_args": {"i": "1"}}}, {"name": "mbox2_loc/BiasAdd", "op": "_FusedConv2D", "input": ["mbox2_loc_conv0/depthwise", "mbox2_loc/weights", "mbox2_loc/biases"], "device": "/device:CPU:0", "attr": {"dilations": {"list": {"i": ["1", "1", "1", "1"]}}, "T": {"type": "DT_FLOAT"}, "strides": {"list": {"i": ["1", "1", "1", "1"]}}, "data_format": {"s": "TkhXQw=="}, "use_cudnn_on_gpu": {"b": true}, "explicit_paddings": {"list": {}}, "num_args": {"i": "1"}, "epsilon": {"f": 0.0}, "padding": {"s": "U0FNRQ=="}, "fused_ops": {"list": {"s": ["Qmlhc0FkZA=="]}}}}, {"name": "mbox2_conf/BiasAdd", "op": "_FusedConv2D", "input": ["mbox2_conf_conv0/depthwise", "mbox2_conf/weights", "mbox2_conf/biases"], "device": "/device:CPU:0", "attr": {"fused_ops": {"list": {"s": ["Qmlhc0FkZA=="]}}, "dilations": {"list": {"i": ["1", "1", "1", "1"]}}, "T": {"type": "DT_FLOAT"}, "data_format": {"s": "TkhXQw=="}, "strides": {"list": {"i": ["1", "1", "1", "1"]}}, "use_cudnn_on_gpu": {"b": true}, "explicit_paddings": {"list": {}}, "num_args": {"i": "1"}, "epsilon": {"f": 0.0}, "padding": {"s": "U0FNRQ=="}}}, {"name": "extra1/extra1", "op": "_FusedConv2D", "input": ["extra1_conv0/depthwise", "extra1/weights", "extra1/biases"], "device": "/device:CPU:0", "attr": {"fused_ops": {"list": {"s": ["Qmlhc0FkZA==", "UmVsdTY="]}}, "dilations": {"list": {"i": ["1", "1", "1", "1"]}}, "T": {"type": "DT_FLOAT"}, "data_format": {"s": "TkhXQw=="}, "strides": {"list": {"i": ["1", "1", "1", "1"]}}, "use_cudnn_on_gpu": {"b": true}, "explicit_paddings": {"list": {}}, "num_args": {"i": "1"}, "epsilon": {"f": 0.0}, "padding": {"s": "U0FNRQ=="}}}, {"name": "mbox2_loc_flatten", "op": "Reshape", "input": ["mbox2_loc/BiasAdd", "mbox_loc_shape"], "attr": {"T": {"type": "DT_FLOAT"}, "Tshape": {"type": "DT_INT32"}}}, {"name": "mbox2_conf_flatten", "op": "Reshape", "input": ["mbox2_conf/BiasAdd", "mbox_conf_shape"], "attr": {"T": {"type": "DT_FLOAT"}, "Tshape": {"type": "DT_INT32"}}}, {"name": "mbox3_loc_conv0/depthwise", "op": "FusedDepthwiseConv2dNative", "input": ["extra1/extra1", "mbox3_loc_conv0/weights", "mbox3_loc_conv0/biases"], "attr": {"dilations": {"list": {"i": ["1", "1", "1", "1"]}}, "T": {"type": "DT_FLOAT"}, "strides": {"list": {"i": ["1", "1", "1", "1"]}}, "data_format": {"s": "TkhXQw=="}, "explicit_paddings": {"list": {}}, "num_args": {"i": "1"}, "padding": {"s": "U0FNRQ=="}, "fused_ops": {"list": {"s": ["Qmlhc0FkZA==", "UmVsdTY="]}}}}, {"name": "mbox3_conf_conv0/depthwise", "op": "FusedDepthwiseConv2dNative", "input": ["extra1/extra1", "mbox3_conf_conv0/weights", "mbox3_conf_conv0/biases"], "attr": {"data_format": {"s": "TkhXQw=="}, "strides": {"list": {"i": ["1", "1", "1", "1"]}}, "explicit_paddings": {"list": {}}, "num_args": {"i": "1"}, "padding": {"s": "U0FNRQ=="}, "fused_ops": {"list": {"s": ["Qmlhc0FkZA==", "UmVsdTY="]}}, "dilations": {"list": {"i": ["1", "1", "1", "1"]}}, "T": {"type": "DT_FLOAT"}}}, {"name": "extra2_conv0/depthwise", "op": "FusedDepthwiseConv2dNative", "input": ["extra1/extra1", "extra2_conv0/weights", "extra2_conv0/biases"], "attr": {"fused_ops": {"list": {"s": ["Qmlhc0FkZA==", "UmVsdTY="]}}, "dilations": {"list": {"i": ["1", "1", "1", "1"]}}, "T": {"type": "DT_FLOAT"}, "data_format": {"s": "TkhXQw=="}, "strides": {"list": {"i": ["1", "1", "1", "1"]}}, "explicit_paddings": {"list": {}}, "num_args": {"i": "1"}, "padding": {"s": "VkFMSUQ="}}}, {"name": "mbox3_loc/BiasAdd", "op": "_FusedConv2D", "input": ["mbox3_loc_conv0/depthwise", "mbox3_loc/weights", "mbox3_loc/biases"], "device": "/device:CPU:0", "attr": {"num_args": {"i": "1"}, "epsilon": {"f": 0.0}, "padding": {"s": "U0FNRQ=="}, "fused_ops": {"list": {"s": ["Qmlhc0FkZA=="]}}, "dilations": {"list": {"i": ["1", "1", "1", "1"]}}, "T": {"type": "DT_FLOAT"}, "strides": {"list": {"i": ["1", "1", "1", "1"]}}, "data_format": {"s": "TkhXQw=="}, "use_cudnn_on_gpu": {"b": true}, "explicit_paddings": {"list": {}}}}, {"name": "mbox3_conf/BiasAdd", "op": "_FusedConv2D", "input": ["mbox3_conf_conv0/depthwise", "mbox3_conf/weights", "mbox3_conf/biases"], "device": "/device:CPU:0", "attr": {"dilations": {"list": {"i": ["1", "1", "1", "1"]}}, "T": {"type": "DT_FLOAT"}, "data_format": {"s": "TkhXQw=="}, "strides": {"list": {"i": ["1", "1", "1", "1"]}}, "explicit_paddings": {"list": {}}, "use_cudnn_on_gpu": {"b": true}, "num_args": {"i": "1"}, "epsilon": {"f": 0.0}, "padding": {"s": "U0FNRQ=="}, "fused_ops": {"list": {"s": ["Qmlhc0FkZA=="]}}}}, {"name": "extra2/extra2", "op": "_FusedConv2D", "input": ["extra2_conv0/depthwise", "extra2/weights", "extra2/biases"], "device": "/device:CPU:0", "attr": {"data_format": {"s": "TkhXQw=="}, "strides": {"list": {"i": ["1", "1", "1", "1"]}}, "explicit_paddings": {"list": {}}, "use_cudnn_on_gpu": {"b": true}, "num_args": {"i": "1"}, "epsilon": {"f": 0.0}, "padding": {"s": "U0FNRQ=="}, "fused_ops": {"list": {"s": ["Qmlhc0FkZA==", "UmVsdTY="]}}, "dilations": {"list": {"i": ["1", "1", "1", "1"]}}, "T": {"type": "DT_FLOAT"}}}, {"name": "mbox3_loc_flatten", "op": "Reshape", "input": ["mbox3_loc/BiasAdd", "mbox_loc_shape"], "attr": {"T": {"type": "DT_FLOAT"}, "Tshape": {"type": "DT_INT32"}}}, {"name": "mbox3_conf_flatten", "op": "Reshape", "input": ["mbox3_conf/BiasAdd", "mbox_conf_shape"], "attr": {"T": {"type": "DT_FLOAT"}, "Tshape": {"type": "DT_INT32"}}}, {"name": "mbox4_loc_conv0/depthwise", "op": "FusedDepthwiseConv2dNative", "input": ["extra2/extra2", "mbox4_loc_conv0/weights", "mbox4_loc_conv0/biases"], "attr": {"padding": {"s": "U0FNRQ=="}, "fused_ops": {"list": {"s": ["Qmlhc0FkZA==", "UmVsdTY="]}}, "dilations": {"list": {"i": ["1", "1", "1", "1"]}}, "T": {"type": "DT_FLOAT"}, "strides": {"list": {"i": ["1", "1", "1", "1"]}}, "data_format": {"s": "TkhXQw=="}, "explicit_paddings": {"list": {}}, "num_args": {"i": "1"}}}, {"name": "mbox4_conf_conv0/depthwise", "op": "FusedDepthwiseConv2dNative", "input": ["extra2/extra2", "mbox4_conf_conv0/weights", "mbox4_conf_conv0/biases"], "attr": {"strides": {"list": {"i": ["1", "1", "1", "1"]}}, "data_format": {"s": "TkhXQw=="}, "explicit_paddings": {"list": {}}, "num_args": {"i": "1"}, "padding": {"s": "U0FNRQ=="}, "fused_ops": {"list": {"s": ["Qmlhc0FkZA==", "UmVsdTY="]}}, "dilations": {"list": {"i": ["1", "1", "1", "1"]}}, "T": {"type": "DT_FLOAT"}}}, {"name": "mbox4_loc/BiasAdd", "op": "_FusedConv2D", "input": ["mbox4_loc_conv0/depthwise", "mbox4_loc/weights", "mbox4_loc/biases"], "device": "/device:CPU:0", "attr": {"dilations": {"list": {"i": ["1", "1", "1", "1"]}}, "T": {"type": "DT_FLOAT"}, "strides": {"list": {"i": ["1", "1", "1", "1"]}}, "data_format": {"s": "TkhXQw=="}, "explicit_paddings": {"list": {}}, "use_cudnn_on_gpu": {"b": true}, "num_args": {"i": "1"}, "epsilon": {"f": 0.0}, "padding": {"s": "U0FNRQ=="}, "fused_ops": {"list": {"s": ["Qmlhc0FkZA=="]}}}}, {"name": "mbox4_conf/BiasAdd", "op": "_FusedConv2D", "input": ["mbox4_conf_conv0/depthwise", "mbox4_conf/weights", "mbox4_conf/biases"], "device": "/device:CPU:0", "attr": {"dilations": {"list": {"i": ["1", "1", "1", "1"]}}, "T": {"type": "DT_FLOAT"}, "data_format": {"s": "TkhXQw=="}, "strides": {"list": {"i": ["1", "1", "1", "1"]}}, "use_cudnn_on_gpu": {"b": true}, "explicit_paddings": {"list": {}}, "num_args": {"i": "1"}, "epsilon": {"f": 0.0}, "padding": {"s": "U0FNRQ=="}, "fused_ops": {"list": {"s": ["Qmlhc0FkZA=="]}}}}, {"name": "mbox4_loc_flatten", "op": "Reshape", "input": ["mbox4_loc/BiasAdd", "mbox_loc_shape"], "attr": {"T": {"type": "DT_FLOAT"}, "Tshape": {"type": "DT_INT32"}}}, {"name": "mbox4_conf_flatten", "op": "Reshape", "input": ["mbox4_conf/BiasAdd", "mbox_conf_shape"], "attr": {"T": {"type": "DT_FLOAT"}, "Tshape": {"type": "DT_INT32"}}}, {"name": "mbox_loc", "op": "ConcatV2", "input": ["mbox0_loc_flatten", "mbox1_loc_flatten", "mbox2_loc_flatten", "mbox3_loc_flatten", "mbox4_loc_flatten", "mbox_loc/axis"], "attr": {"T": {"type": "DT_FLOAT"}, "N": {"i": "5"}, "Tidx": {"type": "DT_INT32"}}}, {"name": "mbox_conf", "op": "ConcatV2", "input": ["mbox0_conf_flatten", "mbox1_conf_flatten", "mbox2_conf_flatten", "mbox3_conf_flatten", "mbox4_conf_flatten", "mbox_conf/axis"], "attr": {"N": {"i": "5"}, "Tidx": {"type": "DT_INT32"}, "T": {"type": "DT_FLOAT"}}}, {"name": "split", "op": "Split", "input": ["value1", "mbox_loc"], "attr": {"num_split": {"i": "2"}, "T": {"type": "DT_FLOAT"}}}, {"name": "Reshape_1", "op": "Reshape", "input": ["mbox_conf", "Reshape_1/shape"], "attr": {"T": {"type": "DT_FLOAT"}, "Tshape": {"type": "DT_INT32"}}}, {"name": "mul_1", "op": "Mul", "input": ["split", "mul"], "attr": {"T": {"type": "DT_FLOAT"}}}, {"name": "mul_2", "op": "Mul", "input": ["split:1", "Const_4"], "attr": {"T": {"type": "DT_FLOAT"}}}, {"name": "mbox_conf_sigmoid", "op": "Sigmoid", "input": ["Reshape_1"], "attr": {"T": {"type": "DT_FLOAT"}}}, {"name": "add", "op": "Add", "input": ["prior_centers", "mul_1"], "attr": {"T": {"type": "DT_FLOAT"}}}, {"name": "Exp", "op": "Exp", "input": ["mul_2"], "attr": {"T": {"type": "DT_FLOAT"}}}, {"name": "ArgMax", "op": "ArgMax", "input": ["mbox_conf_sigmoid", "value1"], "attr": {"T": {"type": "DT_FLOAT"}, "output_type": {"type": "DT_INT64"}, "Tidx": {"type": "DT_INT32"}}}, {"name": "Max", "op": "Max", "input": ["mbox_conf_sigmoid", "value1"], "attr": {"T": {"type": "DT_FLOAT"}, "Tidx": {"type": "DT_INT32"}, "keep_dims": {"b": false}}}, {"name": "truediv", "op": "Mul", "input": ["Exp", "mul_3"], "attr": {"T": {"type": "DT_FLOAT"}}}, {"name": "sub", "op": "Sub", "input": ["add", "truediv"], "attr": {"T": {"type": "DT_FLOAT"}}}, {"name": "add_1", "op": "Add", "input": ["add", "truediv"], "attr": {"T": {"type": "DT_FLOAT"}}}, {"name": "concat", "op": "ConcatV2", "input": ["sub", "add_1", "value1"], "attr": {"Tidx": {"type": "DT_INT32"}, "T": {"type": "DT_FLOAT"}, "N": {"i": "2"}}}, {"name": "non_max_suppression/NonMaxSuppressionV3", "op": "NonMaxSuppressionV4", "input": ["concat", "Max", "non_max_suppression/NonMaxSuppressionV3/max_output_size", "non_max_suppression/iou_threshold", "non_max_suppression/score_threshold"], "attr": {"T_threshold": {"type": "DT_FLOAT"}, "pad_to_max_output_size": {"b": false}, "T": {"type": "DT_FLOAT"}}}, {"name": "GatherV2", "op": "GatherV2", "input": ["concat", "non_max_suppression/NonMaxSuppressionV3", "value0"], "attr": {"Tparams": {"type": "DT_FLOAT"}, "Taxis": {"type": "DT_INT32"}, "batch_dims": {"i": "0"}, "Tindices": {"type": "DT_INT32"}}}, {"name": "GatherV2_1", "op": "GatherV2", "input": ["ArgMax", "non_max_suppression/NonMaxSuppressionV3", "value0"], "attr": {"Taxis": {"type": "DT_INT32"}, "batch_dims": {"i": "0"}, "Tindices": {"type": "DT_INT32"}, "Tparams": {"type": "DT_INT64"}}}, {"name": "GatherV2_2", "op": "GatherV2", "input": ["Max", "non_max_suppression/NonMaxSuppressionV3", "value0"], "attr": {"Tparams": {"type": "DT_FLOAT"}, "Taxis": {"type": "DT_INT32"}, "batch_dims": {"i": "0"}, "Tindices": {"type": "DT_INT32"}}}, {"name": "detected_boxes", "op": "Identity", "input": ["GatherV2"], "attr": {"T": {"type": "DT_FLOAT"}}}, {"name": "detected_classes", "op": "Identity", "input": ["GatherV2_1"], "attr": {"T": {"type": "DT_INT64"}}}, {"name": "detected_scores", "op": "Identity", "input": ["GatherV2_2"], "attr": {"T": {"type": "DT_FLOAT"}}}], "library": {}, "versions": {}}, "weightsManifest": [{"paths": ["weights.bin"], "weights": [{"name": "prior_centers", "shape": [3210, 2], "dtype": "float32"}, {"name": "mul", "shape": [3210, 2], "dtype": "float32"}, {"name": "mbox0_loc_conv0/weights", "shape": [3, 3, 576, 1], "dtype": "float32"}, {"name": "mbox0_loc_conv0/biases", "shape": [576], "dtype": "float32"}, {"name": "mbox0_loc/weights", "shape": [1, 1, 576, 24], "dtype": "float32"}, {"name": "mbox0_loc/biases", "shape": [24], "dtype": "float32"}, {"name": "mbox1_loc_conv0/weights", "shape": [3, 3, 1280, 1], "dtype": "float32"}, {"name": "mbox1_loc_conv0/biases", "shape": [1280], "dtype": "float32"}, {"name": "mbox1_loc/weights", "shape": [1, 1, 1280, 24], "dtype": "float32"}, {"name": "mbox1_loc/biases", "shape": [24], "dtype": "float32"}, {"name": "mbox2_loc_conv0/weights", "shape": [3, 3, 256, 1], "dtype": "float32"}, {"name": "mbox2_loc_conv0/biases", "shape": [256], "dtype": "float32"}, {"name": "mbox2_loc/weights", "shape": [1, 1, 256, 24], "dtype": "float32"}, {"name": "mbox2_loc/biases", "shape": [24], "dtype": "float32"}, {"name": "mbox3_loc_conv0/weights", "shape": [3, 3, 256, 1], "dtype": "float32"}, {"name": "mbox3_loc_conv0/biases", "shape": [256], "dtype": "float32"}, {"name": "mbox3_loc/weights", "shape": [1, 1, 256, 24], "dtype": "float32"}, {"name": "mbox3_loc/biases", "shape": [24], "dtype": "float32"}, {"name": "mbox4_loc_conv0/weights", "shape": [3, 3, 128, 1], "dtype": "float32"}, {"name": "mbox4_loc_conv0/biases", "shape": [128], "dtype": "float32"}, {"name": "mbox4_loc/weights", "shape": [1, 1, 128, 24], "dtype": "float32"}, {"name": "mbox4_loc/biases", "shape": [24], "dtype": "float32"}, {"name": "mbox_loc_shape", "shape": [2], "dtype": "int32"}, {"name": "mbox_loc/axis", "shape": [], "dtype": "int32"}, {"name": "Const_4", "shape": [], "dtype": "float32"}, {"name": "mul_3", "shape": [3210, 2], "dtype": "float32"}, {"name": "mbox0_conf_conv0/weights", "shape": [3, 3, 576, 1], "dtype": "float32"}, {"name": "mbox0_conf_conv0/biases", "shape": [576], "dtype": "float32"}, {"name": "mbox0_conf/weights", "shape": [1, 1, 576, 18], "dtype": "float32"}, {"name": "mbox0_conf/biases", "shape": [18], "dtype": "float32"}, {"name": "mbox1_conf_conv0/weights", "shape": [3, 3, 1280, 1], "dtype": "float32"}, {"name": "mbox1_conf_conv0/biases", "shape": [1280], "dtype": "float32"}, {"name": "mbox1_conf/weights", "shape": [1, 1, 1280, 18], "dtype": "float32"}, {"name": "mbox1_conf/biases", "shape": [18], "dtype": "float32"}, {"name": "mbox2_conf_conv0/weights", "shape": [3, 3, 256, 1], "dtype": "float32"}, {"name": "mbox2_conf_conv0/biases", "shape": [256], "dtype": "float32"}, {"name": "mbox2_conf/weights", "shape": [1, 1, 256, 18], "dtype": "float32"}, {"name": "mbox2_conf/biases", "shape": [18], "dtype": "float32"}, {"name": "mbox3_conf_conv0/weights", "shape": [3, 3, 256, 1], "dtype": "float32"}, {"name": "mbox3_conf_conv0/biases", "shape": [256], "dtype": "float32"}, {"name": "mbox3_conf/weights", "shape": [1, 1, 256, 18], "dtype": "float32"}, {"name": "mbox3_conf/biases", "shape": [18], "dtype": "float32"}, {"name": "mean_value", "shape": [3], "dtype": "float32"}, {"name": "conv1/weights", "shape": [3, 3, 3, 32], "dtype": "float32"}, {"name": "conv1/biases", "shape": [32], "dtype": "float32"}, {"name": "block0_conv0/weights", "shape": [1, 1, 32, 32], "dtype": "float32"}, {"name": "block0_conv0/biases", "shape": [32], "dtype": "float32"}, {"name": "block0_conv1/weights", "shape": [3, 3, 32, 1], "dtype": "float32"}, {"name": "block0_conv1/biases", "shape": [32], "dtype": "float32"}, {"name": "block0_conv2/weights", "shape": [1, 1, 32, 16], "dtype": "float32"}, {"name": "block0_conv2/biases", "shape": [16], "dtype": "float32"}, {"name": "block1_conv0/weights", "shape": [1, 1, 16, 96], "dtype": "float32"}, {"name": "block1_conv0/biases", "shape": [96], "dtype": "float32"}, {"name": "block1_conv1/weights", "shape": [3, 3, 96, 1], "dtype": "float32"}, {"name": "block1_conv1/biases", "shape": [96], "dtype": "float32"}, {"name": "block1_conv2/weights", "shape": [1, 1, 96, 24], "dtype": "float32"}, {"name": "block1_conv2/biases", "shape": [24], "dtype": "float32"}, {"name": "block2_conv0/weights", "shape": [1, 1, 24, 144], "dtype": "float32"}, {"name": "block2_conv0/biases", "shape": [144], "dtype": "float32"}, {"name": "block2_conv1/weights", "shape": [3, 3, 144, 1], "dtype": "float32"}, {"name": "block2_conv1/biases", "shape": [144], "dtype": "float32"}, {"name": "block2_conv2/weights", "shape": [1, 1, 144, 24], "dtype": "float32"}, {"name": "block2_conv2/biases", "shape": [24], "dtype": "float32"}, {"name": "block3_conv0/weights", "shape": [1, 1, 24, 144], "dtype": "float32"}, {"name": "block3_conv0/biases", "shape": [144], "dtype": "float32"}, {"name": "block3_conv1/weights", "shape": [3, 3, 144, 1], "dtype": "float32"}, {"name": "block3_conv1/biases", "shape": [144], "dtype": "float32"}, {"name": "block3_conv2/weights", "shape": [1, 1, 144, 32], "dtype": "float32"}, {"name": "block3_conv2/biases", "shape": [32], "dtype": "float32"}, {"name": "block4_conv0/weights", "shape": [1, 1, 32, 192], "dtype": "float32"}, {"name": "block4_conv0/biases", "shape": [192], "dtype": "float32"}, {"name": "block4_conv1/weights", "shape": [3, 3, 192, 1], "dtype": "float32"}, {"name": "block4_conv1/biases", "shape": [192], "dtype": "float32"}, {"name": "block4_conv2/weights", "shape": [1, 1, 192, 32], "dtype": "float32"}, {"name": "block4_conv2/biases", "shape": [32], "dtype": "float32"}, {"name": "block5_conv0/weights", "shape": [1, 1, 32, 192], "dtype": "float32"}, {"name": "block5_conv0/biases", "shape": [192], "dtype": "float32"}, {"name": "block5_conv1/weights", "shape": [3, 3, 192, 1], "dtype": "float32"}, {"name": "block5_conv1/biases", "shape": [192], "dtype": "float32"}, {"name": "block5_conv2/weights", "shape": [1, 1, 192, 32], "dtype": "float32"}, {"name": "block5_conv2/biases", "shape": [32], "dtype": "float32"}, {"name": "block6_conv0/weights", "shape": [1, 1, 32, 192], "dtype": "float32"}, {"name": "block6_conv0/biases", "shape": [192], "dtype": "float32"}, {"name": "block6_conv1/weights", "shape": [3, 3, 192, 1], "dtype": "float32"}, {"name": "block6_conv1/biases", "shape": [192], "dtype": "float32"}, {"name": "block6_conv2/weights", "shape": [1, 1, 192, 64], "dtype": "float32"}, {"name": "block6_conv2/biases", "shape": [64], "dtype": "float32"}, {"name": "block7_conv0/weights", "shape": [1, 1, 64, 384], "dtype": "float32"}, {"name": "block7_conv0/biases", "shape": [384], "dtype": "float32"}, {"name": "block7_conv1/weights", "shape": [3, 3, 384, 1], "dtype": "float32"}, {"name": "block7_conv1/biases", "shape": [384], "dtype": "float32"}, {"name": "block7_conv2/weights", "shape": [1, 1, 384, 64], "dtype": "float32"}, {"name": "block7_conv2/biases", "shape": [64], "dtype": "float32"}, {"name": "block8_conv0/weights", "shape": [1, 1, 64, 384], "dtype": "float32"}, {"name": "block8_conv0/biases", "shape": [384], "dtype": "float32"}, {"name": "block8_conv1/weights", "shape": [3, 3, 384, 1], "dtype": "float32"}, {"name": "block8_conv1/biases", "shape": [384], "dtype": "float32"}, {"name": "block8_conv2/weights", "shape": [1, 1, 384, 64], "dtype": "float32"}, {"name": "block8_conv2/biases", "shape": [64], "dtype": "float32"}, {"name": "block9_conv0/weights", "shape": [1, 1, 64, 384], "dtype": "float32"}, {"name": "block9_conv0/biases", "shape": [384], "dtype": "float32"}, {"name": "block9_conv1/weights", "shape": [3, 3, 384, 1], "dtype": "float32"}, {"name": "block9_conv1/biases", "shape": [384], "dtype": "float32"}, {"name": "block9_conv2/weights", "shape": [1, 1, 384, 64], "dtype": "float32"}, {"name": "block9_conv2/biases", "shape": [64], "dtype": "float32"}, {"name": "block10_conv0/weights", "shape": [1, 1, 64, 384], "dtype": "float32"}, {"name": "block10_conv0/biases", "shape": [384], "dtype": "float32"}, {"name": "block10_conv1/weights", "shape": [3, 3, 384, 1], "dtype": "float32"}, {"name": "block10_conv1/biases", "shape": [384], "dtype": "float32"}, {"name": "block10_conv2/weights", "shape": [1, 1, 384, 96], "dtype": "float32"}, {"name": "block10_conv2/biases", "shape": [96], "dtype": "float32"}, {"name": "block11_conv0/weights", "shape": [1, 1, 96, 576], "dtype": "float32"}, {"name": "block11_conv0/biases", "shape": [576], "dtype": "float32"}, {"name": "block11_conv1/weights", "shape": [3, 3, 576, 1], "dtype": "float32"}, {"name": "block11_conv1/biases", "shape": [576], "dtype": "float32"}, {"name": "block11_conv2/weights", "shape": [1, 1, 576, 96], "dtype": "float32"}, {"name": "block11_conv2/biases", "shape": [96], "dtype": "float32"}, {"name": "block12_conv0/weights", "shape": [1, 1, 96, 576], "dtype": "float32"}, {"name": "block12_conv0/biases", "shape": [576], "dtype": "float32"}, {"name": "block12_conv1/weights", "shape": [3, 3, 576, 1], "dtype": "float32"}, {"name": "block12_conv1/biases", "shape": [576], "dtype": "float32"}, {"name": "block12_conv2/weights", "shape": [1, 1, 576, 96], "dtype": "float32"}, {"name": "block12_conv2/biases", "shape": [96], "dtype": "float32"}, {"name": "block13_conv0/weights", "shape": [1, 1, 96, 576], "dtype": "float32"}, {"name": "block13_conv0/biases", "shape": [576], "dtype": "float32"}, {"name": "block13_conv1/weights", "shape": [3, 3, 576, 1], "dtype": "float32"}, {"name": "block13_conv1/biases", "shape": [576], "dtype": "float32"}, {"name": "block13_conv2/weights", "shape": [1, 1, 576, 160], "dtype": "float32"}, {"name": "block13_conv2/biases", "shape": [160], "dtype": "float32"}, {"name": "block14_conv0/weights", "shape": [1, 1, 160, 960], "dtype": "float32"}, {"name": "block14_conv0/biases", "shape": [960], "dtype": "float32"}, {"name": "block14_conv1/weights", "shape": [3, 3, 960, 1], "dtype": "float32"}, {"name": "block14_conv1/biases", "shape": [960], "dtype": "float32"}, {"name": "block14_conv2/weights", "shape": [1, 1, 960, 160], "dtype": "float32"}, {"name": "block14_conv2/biases", "shape": [160], "dtype": "float32"}, {"name": "block15_conv0/weights", "shape": [1, 1, 160, 960], "dtype": "float32"}, {"name": "block15_conv0/biases", "shape": [960], "dtype": "float32"}, {"name": "block15_conv1/weights", "shape": [3, 3, 960, 1], "dtype": "float32"}, {"name": "block15_conv1/biases", "shape": [960], "dtype": "float32"}, {"name": "block15_conv2/weights", "shape": [1, 1, 960, 160], "dtype": "float32"}, {"name": "block15_conv2/biases", "shape": [160], "dtype": "float32"}, {"name": "block16_conv0/weights", "shape": [1, 1, 160, 960], "dtype": "float32"}, {"name": "block16_conv0/biases", "shape": [960], "dtype": "float32"}, {"name": "block16_conv1/weights", "shape": [3, 3, 960, 1], "dtype": "float32"}, {"name": "block16_conv1/biases", "shape": [960], "dtype": "float32"}, {"name": "block16_conv2/weights", "shape": [1, 1, 960, 320], "dtype": "float32"}, {"name": "block16_conv2/biases", "shape": [320], "dtype": "float32"}, {"name": "conv2/weights", "shape": [1, 1, 320, 1280], "dtype": "float32"}, {"name": "conv2/biases", "shape": [1280], "dtype": "float32"}, {"name": "padding", "shape": [4, 2], "dtype": "int32"}, {"name": "extra0_conv0/weights", "shape": [3, 3, 1280, 1], "dtype": "float32"}, {"name": "extra0_conv0/biases", "shape": [1280], "dtype": "float32"}, {"name": "extra0/weights", "shape": [1, 1, 1280, 256], "dtype": "float32"}, {"name": "extra0/biases", "shape": [256], "dtype": "float32"}, {"name": "extra1_conv0/weights", "shape": [3, 3, 256, 1], "dtype": "float32"}, {"name": "extra1_conv0/biases", "shape": [256], "dtype": "float32"}, {"name": "extra1/weights", "shape": [1, 1, 256, 256], "dtype": "float32"}, {"name": "extra1/biases", "shape": [256], "dtype": "float32"}, {"name": "extra2_conv0/weights", "shape": [3, 3, 256, 1], "dtype": "float32"}, {"name": "extra2_conv0/biases", "shape": [256], "dtype": "float32"}, {"name": "extra2/weights", "shape": [1, 1, 256, 128], "dtype": "float32"}, {"name": "extra2/biases", "shape": [128], "dtype": "float32"}, {"name": "mbox4_conf_conv0/weights", "shape": [3, 3, 128, 1], "dtype": "float32"}, {"name": "mbox4_conf_conv0/biases", "shape": [128], "dtype": "float32"}, {"name": "mbox4_conf/weights", "shape": [1, 1, 128, 18], "dtype": "float32"}, {"name": "mbox4_conf/biases", "shape": [18], "dtype": "float32"}, {"name": "mbox_conf_shape", "shape": [1], "dtype": "int32"}, {"name": "mbox_conf/axis", "shape": [], "dtype": "int32"}, {"name": "Reshape_1/shape", "shape": [2], "dtype": "int32"}, {"name": "value1", "shape": [], "dtype": "int32"}, {"name": "non_max_suppression/NonMaxSuppressionV3/max_output_size", "shape": [], "dtype": "int32"}, {"name": "non_max_suppression/iou_threshold", "shape": [], "dtype": "float32"}, {"name": "non_max_suppression/score_threshold", "shape": [], "dtype": "float32"}, {"name": "value0", "shape": [], "dtype": "int32"}]}]}